system/system/saiv/textrecognition/stride/mSTR_Korean_CNN.tflite (tflite, 785728 bytes, 10 tensors)

recog/cnn/conv2d/bias f4 [64]
00000000: c9f0 2c3a 5ba2 f73b 7278 87bb 68a3 953c
00000010: 4cd2 5bbc c94f c73c f791 3fbc 9e21 78bc
00000020: d7f8 84bb dabe 87bb 65b6 c13b c8f0 83bc
00000030: f050 dd3b f05d 9bbc be11 843b 1ecb 3cbc
00000040: 859c 47bd 5c19 7bbd 0177 f3bc b4b2 4f3b
00000050: cdf2 deba ee78 3fbd 0c61 03bf 8be3 29bd
00000060: fa5d b0ba 4201 19bd 1bac 20bc 779f 74be
00000070: eab0 8f3b b87a 81bc 51fb 79bc 2e13 6c3c
00000080: 859b 8ab9 36ca db39 8619 ddba df76 d6be
00000090: c290 94bb b4dd 28bc ab1c 33be 282e 5dbe
000000a0: 1bcf 2f3b 3909 b5bc 6103 75be 5860 8dbe
000000b0: 3655 99be 331f e73a 6f43 a13b 2d29 3ebd
000000c0: d6a0 9ebc 015c 17bd 074d d9bb 4b33 cabc
000000d0: 055e 923c 98fb 1dbd 8a4a c3bd ffe1 00bc
000000e0: fece 24bc 145c 923c 783b 98bd b0a5 86bc
000000f0: ad0d 7b3b eb32 463c 0c92 b9be 558a d4bb
0.0006597159 0.007557196 -0.0041342312 0.018266395 -0.013416838 0.024330037 -0.011692516 -0.015144734
-0.0040579843 -0.0041426243 0.0059116357 -0.016106024 0.0067540333 -0.018965691 0.0040304353 -0.011523036
-0.048733253 -0.06130348 -0.029719831 0.0031692209 -0.0017009616 -0.046746187 -0.51319957 -0.041476768
-0.0013455742 -0.037354715 -0.009806658 -0.23888956 0.0043851035 -0.015805587 -0.015257672 0.01440887
-0.00026437282 0.00041921594 -0.0016868568 -0.41887566 -0.004533858 -0.010306764 -0.17491405 -0.21599638
0.0026826325 -0.022099124 -0.2392707 -0.27612567 -0.29947823 0.00176332 0.004921369 -0.046425987
-0.019363802 -0.036952976 -0.006631497 -0.024682662 0.017867098 -0.038570017 -0.095357016 -0.007866382
-0.010059116 0.017866172 -0.07433218 -0.016436428 0.0038307712 0.012097101 -0.36244237 -0.006486217

recog/cnn/conv2d_1/bias f4 [96]
00000000: d8a2 fdbc 094b b23d 54a1 c9bc b987 07be
00000010: e730 5ebc 5c0a 89be bc6f 93bc 5151 043b
00000020: 4359 56bd e7da 62bc a90a 8bbc 8365 00bd
00000030: a237 21bc 49e6 cb3b 6612 acbd d6ad 75bc
00000040: bc51 27bc d9b6 b23c ed94 503b daba 173c
00000050: 91c3 dc3b 2522 73bd d58e 26bc 1381 263b
00000060: 8b3f db3c a74e bcbd 3e75 ca3c 695f a53b
00000070: 9fa2 cc3c a8ca 07bc 0e1d 94bd 8852 fdbd
00000080: 4a07 c3bd 927b d13c e49a b23d 1869 38bd
00000090: 837e c9bd 18fe 0c3d 20ee 7cbd a730 d9be
000000a0: cf72 ef3c c139 60be 7775 633c ed4c 66bd
000000b0: 7433 d8bc e86f 0c3c 9818 7bbd 3e04 e7bd
000000c0: abe0 533e b048 b5be d950 b9be 5932 c4bc
000000d0: 9ca1 f6bc 765c d13c 0bfd 053e c7c6 5bbe
000000e0: fd9e 6c3c 176b 143d d5ad 19be c319 493e
000000f0: fafd 8abe d962 073e d780 03bc 433e a839
00000100: 68f8 4f3e ef39 0f3d f68c bbbd 897e 69be
00000110: 391e 213c 411a 763c 5aaf d73c 8acf f6bd
00000120: 6d68 52bd 71ab dd3d b924 94bc 27e5 df3c
00000130: 767d a23c 9da9 ce3d 055d 3d3d 80dd b1bd
00000140: 9e34 74bd d2c8 e4bc 9405 1e3c afff 963c
00000150: cd4d 5ebc 965a f6bd 6534 d73d fc9e d5bd
00000160: 8ada 7a3d 0954 5cbc 594f edbc 2b60 f53d
00000170: 4940 14be e89b 74bd d13d 05bd db82 65bd
-0.030961439 0.08705718 -0.02461306 -0.13235368 -0.013561464 -0.26765716 -0.017997615 0.002019007
-0.05233122 -0.013846136 -0.016972857 -0.03134681 -0.009839924 0.0062225205 -0.08401947 -0.014995059
-0.010212358 0.021815704 0.0031827048 0.0092608575 0.0067371805 -0.059358735 -0.01016589 0.0025406524
0.026763698 -0.09194689 0.024714109 0.005046774 0.024979888 -0.008288063 -0.07232104 -0.12369257
-0.09522875 0.025571618 0.08720949 -0.0450221 -0.09838583 0.03442201 -0.06175053 -0.4241993
0.02922955 -0.21897031 0.013882986 -0.056225706 -0.026391722 0.008571602 -0.06130275 -0.11280106
0.20691173 -0.3540702 -0.36194494 -0.023949789 -0.030106358 0.025556784 0.1308481 -0.21462546
0.014442203 0.03623494 -0.15007718 0.19638734 -0.27146894 0.13221301 -0.008026323 0.00032089846
0.20309603 0.03496736 -0.091577455 -0.22802176 0.009833866 0.015020908 0.026328731 -0.12051304
-0.05136912 0.108237155 -0.018083917 0.027330948 0.019835215 0.10090945 0.04623129 -0.08684826
-0.059620492 -0.02792779 0.009644885 0.018432466 -0.013568354 -0.12028997 0.1050804 -0.104307145
0.06124357 -0.01344777 -0.0289685 0.11981233 -0.14477648 -0.059718996 -0.032529656 -0.056032997

recog/cnn/conv2d_2/bias f4 [156]
00000000: e968 343e 40aa bd3e 9907 203e c757 083e
00000010: fa99 0bbd 5563 9f3e 7acc 083e a2db 973d
00000020: 97d0 e23c 6d8a b13d beed 023e 0cd3 9d3d
00000030: 61c8 583d 1676 723e 282f 413b b2a1 0e3e
00000040: f29b f63d c14b d13d ed47 e63d f520 3b3d
00000050: 494c 4a3c 7cfc 1b3e 1f11 c03e 000d 63bd
00000060: efb8 aebc 20a1 903e b58e 533d d766 ff3d
00000070: 61f4 f03d e555 663e e5c1 933e d474 013e
00000080: 137a f93d 914a 183e 5002 1ebc 8c62 2e3d
00000090: ddf0 3c3e aa1f ac3d 4bb1 f33d 6d78 263e
000000a0: 2c22 8c3e 8499 913e f67c 1b3e b79b 813e
000000b0: 1ed3 163e e628 cb3c fb00 003e 128a d93d
000000c0: 0aa1 203e 33fd b13d eca5 5ebb 0516 893e
000000d0: ff96 393e 5128 f73c 9591 763d a0d6 cf3d
000000e0: 6cf9 0b3e 1d91 c83d 9c1f 593e c152 96bb
000000f0: 689f bd3d c954 573e 2a53 85bc dc0e 9f3e
00000100: 3db1 a33d 59ed 993e 2786 a73d e8ef 89bd
00000110: 1ead 5f3e 2c79 c93d e3b3 0a3e 6d01 723d
00000120: 8eb6 353e 8b47 133e 7e32 d23c a189 bb3d
00000130: 1e5b 143e 65d0 d53d cdf9 683b ab89 553d
00000140: b29a da3d c781 0b3d 9842 c33d 0a0d 043e
00000150: 51bc 5e3e 9590 283e 8d74 82bc eca5 4e3e
00000160: b764 503d c164 58bd 27a5 513e bd2d 403d
00000170: 8730 1f3d 80ac eb3d ec98 af3c 9585 8d3e
00000180: 4b06 5c3e d72d 3a3c d1fc b73e 291f 2dbe
00000190: a56a 793e 5001 2e3e 5be7 b63d 219f 6a3d
000001a0: 786f fc3d 1216 863d 96e1 393e a164 0f3e
000001b0: 05b9 243d 0ac8 143e 3756 943e ea6c 5d3e
000001c0: f873 b43d c378 103e 2854 b63d 9d7e 943d
000001d0: 166b aa3d 532d a03c 7584 4c3e 12e6 6b3c
000001e0: c644 273e cb20 c03d 5565 b2bd 8aad 3a3e
000001f0: 1609 843e c323 23bc 64bb f4bc a654 793d
00000200: c2e8 343e daa7 c23d 40ce d03d 9eae 5abd
00000210: 9ed9 733e db95 e13d f24b e63d 39ea b63c
00000220: 9f4e 173e 4084 783d 4c2e 5a3e 0a4c 993d
00000230: 94a5 f8bc e4f9 143d 0d93 643e 6240 18bd
00000240: 7b19 bb3d 0d8e c63c ca4f 4e3e 16d5 a53e
00000250: 313e 4bbc a972 673d 861f 93bc ef85 493d
00000260: 33ed 343e 4d50 4d3d 333d 4cbc a219 843e
0.17618145 0.37043953 0.15627898 0.13314734 -0.03408239 0.31130472 0.13359252 0.074149385
0.027687354 0.08668981 0.12786004 0.077062696 0.05292547 0.23677859 0.002947757 0.1392887
0.12041463 0.10219527 0.112441875 0.045685727 0.012347289 0.15233034 0.37513062 -0.05543232
-0.021328418 0.2824793 0.051649768 0.12470787 0.117653616 0.22493704 0.28858867 0.12642223
0.12181487 0.14872195 -0.009644106 0.04257445 0.18451257 0.08404477 0.1189905 0.16256876
0.2736982 0.28437436 0.15184388 0.25314113 0.14728972 0.024799775 0.12500374 0.10622038
0.15686432 0.08690872 -0.003397341 0.26774612 0.18124007 0.030170592 0.06019743 0.10148358
0.13669366 0.09793303 0.21203464 -0.0045875018 0.0925892 0.21028437 -0.016275007 0.31066024
0.0799279 0.30063894 0.081798844 -0.067352116 0.21843383 0.09837565 0.13545184 0.05908339
0.1774542 0.1438276 0.025658842 0.0915711 0.14487883 0.10440139 0.0035549283 0.052133244
0.10674037 0.034059312 0.09534186 0.12895599 0.21751525 0.16461404 -0.015924716 0.20180482
0.0508773 -0.05283046 0.20473157 0.04691862 0.03886464 0.11507511 0.021435224 0.27640978
0.21486776 0.011363468 0.3593507 -0.16906418 0.24357088 0.16992688 0.08930846 0.057280663
0.123259485 0.06547178 0.1815246 0.1400323 0.04021551 0.14529434 0.28972027 0.21623579
0.08811182 0.14108567 0.0890277 0.07250712 0.08321206 0.019552862 0.19972403 0.014398115
0.16334829 0.09381255 -0.08710734 0.18230262 0.25788182 -0.009957257 -0.029874511 0.060871743
0.17666915 0.095046714 0.10195589 -0.053389184 0.23813483 0.11014911 0.11244954 0.022328483
0.14776085 0.060673 0.21306723 0.074852064 -0.030352391 0.036371127 0.2232172 -0.037170775
0.091357194 0.024237657 0.20147625 0.32389134 -0.012404964 0.056505833 -0.017959367 0.049199995
0.1766861 0.05012541 -0.012465763 0.25800806

recog/cnn/conv2d_3/bias f4 [224]
00000000: b5cd fc3d 82d3 ef3e 8b72 13bd e205 073e
00000010: 6ba9 05bd e007 b5be 768d c73d ae23 e13d
00000020: 1d98 b83d a500 5b3c 37c6 bb3e 7294 0ebe
00000030: 4878 a83e 6e5e a5bc 8ee7 673e 04a0 be3e
00000040: aced 023e 3492 49bd 87ee 833e f8d7 e43d
00000050: b7f5 fe3c f673 2b3e aedd cb3d 3bb1 d13d
00000060: fdc1 cabc 2606 01bd f39b 673e 24e3 10bd
00000070: 6ecc bb3e 60d8 1b3e 9c53 edbc 07a6 083d
00000080: c8d8 2a3e b10d 793e f2a9 733e 708d a9bc
00000090: cb2e ccbc 40dd 46bd 3171 aebc 5737 03bd
000000a0: 83d4 793d 2495 1fbd 8b10 203e 7780 9ebc
000000b0: 45d8 813d 2e2b 18bd 8d81 58bd 3c0a 9f3e
000000c0: 8093 ff3d 5d52 0a3e ae56 0d3d 4cc9 e73d
000000d0: 58c9 2a3e 8886 063e 1e09 ae3e 2a2e 123b
000000e0: e596 523e 4ad2 f7bc 8ac5 34bc aa4b 883e
000000f0: aa42 07bd d73b f8bc 2297 bfba c360 2a3e
00000100: 705d 30bd 197b 10bd 6a01 143e 5548 e4bc
00000110: 6edb 853e 2223 3c3c 0300 8c3e ef04 c53b
00000120: 29eb e1bc 829d c53d 416a 01bd 1c7f f53d
00000130: 9067 3e3d 05f4 163e 7a9f ebbc 469d dc3d
00000140: cec1 b73e 3c61 0fbe 85be dc3c a716 01bc
00000150: c34f ac3d 9073 593e 0499 813e c6cd c53d
00000160: d7a2 683e 2fb2 febc 1a44 4b3e e0e8 cf3d
00000170: 65d5 073c 7ce9 873e 1f0f 993e 6d10 483e
00000180: 4173 a73c 31e8 95bd fa60 3bbd 0afe 6c3e
00000190: 792e f73d 6452 10bd 8cf0 2e3e 6db9 773e
000001a0: 8de4 02bd ba1b da3c 3ff8 17bd 2dde c9bd
000001b0: dded 6a3e 68df 26bd 2171 c53d a9af e3bc
000001c0: 6217 fc3d 25e2 c9bd 2515 30bc de95 c7bc
000001d0: 20a1 04bd dbfa 903e e90a 0abd 4ad1 813d
000001e0: 1256 9e3d 73ee 383e b22d 163d a440 863d
000001f0: 4b0e 443e a362 473e 1389 6e3e 11bf 893e
00000200: fb57 afbc b463 97bc a8bd 05bd 18ee af3b
00000210: a908 54be 04e0 0dbd 096c c6bc 8004 6c3e
00000220: aa1d 553e f99a f2bc e991 953e bf6e 153e
00000230: 178a cbbc c64d 76bc 7c75 123e de28 983e
00000240: 6a5f 2b3e 307a 233d 24ed 03bd 9b5b 053d
00000250: f649 99bc e99b ca3d 5004 653e 02cb 13bd
00000260: d6e2 8abb 2195 febc a7a6 d2be 05ea fbbd
00000270: d5f0 913e 47f6 2bbe 5b32 fd3b bc5e 4e3e
00000280: 51cf 81be 8332 eabc 5d69 193e 6c6d bfbc
00000290: 172f 62bc 567f dd3d f480 dcbc d4f7 b3bc
000002a0: 766c acbc cf9f 6a3e 6290 043e d583 5e3e
000002b0: d371 ccbc c404 6f3e 9adc cabc 68f0 9c3d
000002c0: 38fb 853d 0292 c1bc d975 9d3e 3e27 0f3e
000002d0: 64db 8f3e 17f0 0e3e 1cd7 663e d6ba e93d
000002e0: d145 7a3c 587e 02bd 0b91 3f3e ca7d 813a
000002f0: 3fe7 28bd 444e 0abd a7a1 743e 5530 3c3c
00000300: e680 933e 77bf 1fbd c673 0d3e 5089 cf3e
00000310: f7ea 943d 4bf9 903e 73c8 7b3c 70a9 333e
00000320: 8749 1f3e 9988 e2bc 67da cd3d ebdc 01bd
00000330: 1523 e6bc ef5b 8c3e 58f1 11be 81da 343e
00000340: 3c93 343e d89b 91bc 2d08 813d c634 d5bc
00000350: b695 01bd b705 9abc 7cbd 653e 1235 e2bc
00000360: b192 013e 87ce 493e 037f 5c3e db03 a23e
00000370: 6cbc 573e f71e 4fbd 3139 153d a234 1a3e
0.12343923 0.46841055 -0.03599791 0.13185838 -0.032632273 -0.3535757 0.097437784 0.109931335
0.09013388 0.013366853 0.36674663 -0.13923815 0.32904267 -0.02018663 0.22646925 0.37231457
0.12785977 -0.049211696 0.2576792 0.11174005 0.031123025 0.16743454 0.099543914 0.10238882
-0.024750704 -0.031500004 0.22618084 -0.03537287 0.36679405 0.1521926 -0.028970532 0.03336146
0.16684258 0.24321629 0.23795298 -0.020697325 -0.024924656 -0.048550844 -0.021294208 -0.032035198
0.060993683 -0.03896059 0.1563131 -0.019348366 0.06340078 -0.037150554 -0.052857924 0.31062496
0.12479305 0.13507982 0.034506492 0.11317691 0.16678369 0.13137257 0.3399133 0.0022305348
0.20565374 -0.03025164 -0.011033425 0.26620227 -0.03302256 -0.030301971 -0.0014617185 0.16638474
-0.04305786 -0.035273645 0.14453664 -0.027866522 0.26143974 0.011482986 0.2734376 0.006012551
-0.027577953 0.09649183 -0.031595472 0.11987135 0.046485484 0.14741524 -0.028762568 0.10772185
0.3589005 -0.14001936 0.026946316 -0.007878936 0.08413651 0.2123549 0.25312054 0.09658389
0.22718368 -0.031090824 0.19850197 0.10151839 0.008290623 0.26545322 0.2989435 0.19537516
0.0204407 -0.073196776 -0.04574678 0.23143783 0.12069411 -0.035234824 0.17083949 0.24191828
-0.031956244 0.02662455 -0.03710198 -0.0985683 0.229423 -0.0407404 0.09640718 -0.027793722
0.123091474 -0.09857587 -0.010747229 -0.024363454 -0.032380223 0.28316388 -0.03370181 0.06338747
0.0773126 0.18059711 0.036664672 0.06555298 0.19146077 0.1947122 0.23294477 0.26903585
-0.021404257 -0.01848016 -0.032651573 0.005368959 -0.20706429 -0.034637466 -0.024221437 0.23048592
0.20812097 -0.029614912 0.29212883 0.14593028 -0.02484612 -0.015033191 0.14302629 0.2971868
0.16735616 0.03991145 -0.032208577 0.032558065 -0.018712025 0.09893019 0.22364926 -0.036082275
-0.0042384667 -0.03107697 -0.4114277 -0.12300495 0.28504053 -0.16793166 0.00772695 0.20153326
-0.25353482 -0.028588539 0.14981599 -0.023367606 -0.013805172 0.10815303 -0.026916958 -0.02196876
-0.021047812 0.22912525 0.12945703 0.21729977 -0.02495662 0.23341662 -0.024763394 0.07663041
0.06542057 -0.023629192 0.30753973 0.13979813 0.2809707 0.13958775 0.22542995 0.11412589
0.015275435 -0.031858772 0.18707673 0.0009879407 -0.04123616 -0.033766046 0.2388979 0.011486133
0.2880928 -0.039000954 0.13813695 0.4053445 0.072713785 0.28315195 0.015367615 0.17545104
0.15555392 -0.027653025 0.100514226 -0.031704824 -0.0280929 0.2741389 -0.14252222 0.17661478
0.1763429 -0.017774507 0.063003875 -0.02602614 -0.031636916 -0.018801553 0.22435564 -0.027613197
0.12653615 0.1970769 0.21532826 0.31643566 0.21067971 -0.05056664 0.036431495 0.1505914

recog/cnn/conv2d_4/bias f4 [196]
00000000: 8117 ba3e 1380 353e 2d86 b23e be54 4a3e
00000010: 0050 b93d 6a94 dd3d ec70 9b3e b2b9 213e
00000020: 487a e23d 6870 763d 77ac 423e 2ada a83e
00000030: 352d 23bd 593a 943e fab5 f33d 4189 8c3e
00000040: cf67 49bd c5a8 623e b49a ab3e 2478 143e
00000050: b008 c63e 6ef6 f73c 2588 443e 304a aa3e
00000060: 9d0f af3e cc44 003f 517f f2bc 307d 813e
00000070: a971 a73e fb57 ab3e dff7 7b3e b230 403e
00000080: 4f5e 963e 9af1 bbbc ab3e a23d a7f4 193e
00000090: 7740 2bb9 af06 4f3e e60f 9e3e c5fd 8a3e
000000a0: f140 0bbd 3b6d 473e 8135 6a3e 8425 8f3d
000000b0: 68ad 1b3e a916 fe3d 8a0c be3e 2ef6 7d3e
000000c0: 49f3 9e3d 1b6b 763e 38f4 963e 6f73 973d
000000d0: 9099 ec3e 7f1b 5c3e 74e0 943e 2d97 473e
000000e0: 34f9 b63e 3712 3a3e 0c95 f53d 1b31 413e
000000f0: 0d65 a63e 7b77 573e 4605 013e c2ae 27bd
00000100: 2bd5 883e eaab 653e fced a53d a9ef 7d3e
00000110: 27e1 c43e a565 f93e 7e27 673e 7d66 f33e
00000120: ab77 17bd c5b9 2b3e bee3 583e 94ab 213e
00000130: 7a04 583e 7d32 c13d 753d 67bd b8a2 1f3e
00000140: 03b5 7d3e a784 763e 5496 a23d 3a40 513e
00000150: abcc 65bd 723d 4b3e 3543 793e 18ce 4f3e
00000160: 60b8 8d3e 761b bd3e 3173 b83e 2c34 d6bd
00000170: 1e7a 353e 1776 293e 5e84 413e 53f5 823e
00000180: e902 bf3e aaf5 993e 83fc d43e 5c33 023e
00000190: 7c82 073e 6f96 213e 76e5 bb3e 528d 313e
000001a0: 00b4 423e bf04 54bd 2920 6a3e 3b53 8b3e
000001b0: 0ad7 ce3c f7fe e33e 0126 9d3d e7cb 663e
000001c0: b53c 393e 4616 923e 596f 1ebd bfba c33e
000001d0: 5909 5bbd dea4 a23e 56ee 943d a794 f33d
000001e0: 0f4c eb3e f3d5 d13d 5532 aa3e 5b34 043e
000001f0: 9a73 623e 7939 ab3c f564 1cbd 59ab 5d3d
00000200: acf0 973e a898 1d3e 1d38 183e b6c3 823e
00000210: a6b2 1cbd 85ad 5d3e 6d01 db3e c143 063e
00000220: ed36 4a3e 0b5a 9b3e ae57 1dbe 54c8 5abd
00000230: bc32 8d3c 7d0d a63e da1c 16bd 795c 8e3e
00000240: 5c6e 3e3e 1755 8f3e 9350 d73e bc8e b73e
00000250: 2979 773e 0bef 2e3e a8ff a73e 78f4 753e
00000260: 781b 1d3e 7351 9a3e a7ec 993e 5fca a93e
00000270: 9b8c 913e e129 983d 57d7 b53d 657d 3b3e
00000280: 47c4 25bd c9c2 21bd 5e50 753e e49b 943e
00000290: 444f ac3e 4588 33bd 4a7a 9c3e 4345 e93d
000002a0: 1bc2 3a3e 7a3d 883e 16ed a63e 34f0 973e
000002b0: ccc6 343e cbcd cfbc a896 3b3d 45f3 953e
000002c0: 9f73 2cbd be71 d73d 2c37 9e3e f6aa 6f3e
000002d0: 21bd 3f3e a57c 60bd fff4 8c3e d3a1 833e
000002e0: ba50 d03e 7048 183e 54a5 023f d0e5 343e
000002f0: 4754 263e eddb 7e3e 8ea4 833e 43d4 34bd
00000300: e467 10bd e6ed 453e c15d ef3d 0d02 723e
0.36346057 0.17724638 0.34867993 0.19758889 0.09048462 0.10819323 0.3035959 0.15793493
0.110584795 0.060165793 0.19011103 0.32978946 -0.039838035 0.28950766 0.11899944 0.27448466
-0.049171265 0.22134693 0.33516467 0.14498955 0.38678503 0.030268874 0.1919256 0.33259726
0.341916 0.50104976 -0.029601725 0.25290823 0.32703903 0.3346556 0.24606274 0.18768576
0.29368827 -0.022942353 0.07922109 0.15034734 -0.00016331846 0.20217393 0.30871505 0.27146736
-0.03399748 0.19475262 0.22871973 0.069895774 0.15202868 0.12406666 0.37118942 0.24800941
0.07761247 0.24064295 0.294832 0.07395064 0.4621091 0.21494864 0.29077494 0.19491263
0.35737002 0.18171011 0.11991319 0.18866388 0.3249897 0.21041672 0.12599668 -0.040938146
0.26725134 0.22428861 0.081020325 0.24798454 0.38453028 0.4871036 0.22573659 0.4753913
-0.03697936 0.16770084 0.21180627 0.15788108 0.21095458 0.09433458 -0.056455094 0.15589416
0.24776082 0.2407404 0.07938829 0.20434657 -0.05610339 0.19847658 0.24342044 0.20293462
0.2767973 0.36935014 0.36025384 -0.1045917 0.17722365 0.16548954 0.1889815 0.25577793
0.37306908 0.3007024 0.415989 0.12714905 0.1323337 0.15780042 0.36698502 0.17339066
0.19013977 -0.05176234 0.2286383 0.27211937 0.025249023 0.4453046 0.07673264 0.2253872
0.18089564 0.28532618 -0.03868041 0.38228413 -0.05347571 0.3176641 0.072720215 0.118935876
0.45956466 0.10245886 0.33241525 0.12910597 0.22114411 0.020901429 -0.038182218 0.054118488
0.29675806 0.15390265 0.14865156 0.2553994 -0.03825631 0.21648224 0.42774525 0.13111784
0.19747515 0.30342135 -0.15365478 -0.053413704 0.017236106 0.32432166 -0.03664861 0.27804926
0.18596786 0.27994606 0.4205366 0.35851085 0.24167313 0.17083375 0.32812238 0.24019039
0.1534251 0.30140266 0.30063364 0.3316221 0.28427586 0.07429863 0.088789634 0.18309553
-0.040470388 -0.039492402 0.23956439 0.29025185 0.33654225 -0.04383113 0.3056205 0.11390164
0.18238108 0.26609403 0.32602757 0.29675448 0.1765396 -0.025366684 0.045797974 0.29287162
-0.042102452 0.105197415 0.30901468 0.2340506 0.1872449 -0.05480637 0.27530667 0.257094
0.4068659 0.14871383 0.5103352 0.17665792 0.16243087 0.24888583 0.25711483 -0.04414774
-0.035255328 0.19329032 0.11687804 0.23633595

recog/cnn/conv2d/Conv2D i1 [64, 3, 3, 3] scale=0.003926053 zero_point=0
00000000: e512 1341 2101 dbcf ece8 d702 fb21 141d
00000010: 07ea 3806 e6aa c1f9 1e3b 2302 fff3 3d51
00000020: 12fe 0a02 09fb 02f1 ee04 0b0c fef7 090e
00000030: d2b9 e9f6 f0fe e403 1fc0 f24f f9ff 0c06
00000040: 0af1 c328 13f1 030c 1af3 ee7f e398 0eff
00000050: f2f5 f603 f40b 050e 01fd 4146 064d 01d1
00000060: eaf2 01cd bff7 baf0 2c0a 1204 cee9 4bd2
00000070: 1d0f 57f7 b4a9 0655 3917 b223 e8ed dd0b
00000080: 1f31 f5d7 f7ff 0bf9 fcfc 0c02 03fc 0201
00000090: fddd 0ac9 b2f4 ecd5 070a 28fc 3856 0c0c
000000a0: 1ef6 fefe 0413 edff 5bfc a5e2 1c05 930f
000000b0: 6111 eb05 38ea dbeb 1bfe e8ff 16f5 dbe0
000000c0: 3e4c 1cce da02 d6c8 e958 660d d6d3 09f0
000000d0: f505 1c11 f4ee f90a e80d 110a f0e8 3a09
000000e0: d4cd f72c 2a1f f419 e4d7 be0e 37fb eff4
000000f0: 23fc f411 0800 1e19 05d4 dffb e4ee fd43
-0.10600343 0.07066896 0.07459501 0.25519344 0.12955976 0.003926053 -0.14526397 -0.1923766
-0.078521065 -0.09422527 -0.16096818 0.007852106 -0.019630266 0.12955976 0.078521065 0.11385554
0.027482372 -0.08637317 0.21985897 0.023556318 -0.10207738 -0.33764058 -0.24734135 -0.027482372
0.117781594 0.23163714 0.13741186 0.007852106 -0.003926053 -0.05103869 0.23948924 0.3180103
0.07066896 -0.007852106 0.039260533 0.007852106 0.03533448 -0.019630266 0.007852106 -0.058890797
-0.07066896 0.015704213 0.043186586 0.047112636 -0.007852106 -0.03533448 0.03533448 0.054964744
-0.18059845 -0.27874976 -0.09029923 -0.039260533 -0.06281685 -0.007852106 -0.10992949 0.011778159
0.12170765 -0.2512674 -0.054964744 0.3101582 -0.027482372 -0.003926053 0.047112636 0.023556318
0.039260533 -0.058890797 -0.23948924 0.15704213 0.07459501 -0.058890797 0.011778159 0.047112636
0.10207738 -0.05103869 -0.07066896 0.49860877 -0.11385554 -0.40830952 0.054964744 -0.003926053
-0.054964744 -0.043186586 -0.039260533 0.011778159 -0.047112636 0.043186586 0.019630266 0.054964744
0.003926053 -0.011778159 0.25519344 0.27482373 0.023556318 0.3023061 0.003926053 -0.1845245
-0.08637317 -0.054964744 0.003926053 -0.2002287 -0.25519344 -0.03533448 -0.27482373 -0.06281685
0.17274635 0.039260533 0.07066896 0.015704213 -0.19630265 -0.09029923 0.29445398 -0.18059845
0.11385554 0.058890797 0.34156662 -0.03533448 -0.29838005 -0.34156662 0.023556318 0.33371451
0.22378503 0.09029923 -0.30623215 0.13741186 -0.09422527 -0.07459501 -0.13741186 0.043186586
0.12170765 0.1923766 -0.043186586 -0.16096818 -0.03533448 -0.003926053 0.043186586 -0.027482372
-0.015704213 -0.015704213 0.047112636 0.007852106 0.011778159 -0.015704213 0.007852106 0.003926053
-0.011778159 -0.13741186 0.039260533 -0.21593292 -0.30623215 -0.047112636 -0.078521065 -0.16882029
0.027482372 0.039260533 0.15704213 -0.015704213 0.21985897 0.33764058 0.047112636 0.047112636
0.117781594 -0.039260533 -0.007852106 -0.007852106 0.015704213 0.07459501 -0.07459501 -0.003926053
0.35727084 -0.015704213 -0.35727084 -0.117781594 0.10992949 0.019630266 -0.4279398 0.058890797
0.38082716 0.066742904 -0.08244712 0.019630266 0.21985897 -0.08637317 -0.14526397 -0.08244712
0.10600343 -0.007852106 -0.09422527 -0.003926053 0.08637317 -0.043186586 -0.14526397 -0.1256337
0.2434153 0.29838005 0.10992949 -0.19630265 -0.14919002 0.007852106 -0.16489424 -0.21985897
-0.09029923 0.3454927 0.4004574 0.05103869 -0.16489424 -0.1766724 0.03533448 -0.06281685
-0.043186586 0.019630266 0.10992949 0.066742904 -0.047112636 -0.07066896 -0.027482372 0.039260533
-0.09422527 0.05103869 0.066742904 0.039260533 -0.06281685 -0.09422527 0.22771108 0.03533448
-0.17274635 -0.2002287 -0.03533448 0.17274635 0.16489424 0.12170765 -0.047112636 0.098151326
-0.10992949 -0.16096818 -0.2591195 0.054964744 0.21593292 -0.019630266 -0.066742904 -0.047112636
0.13741186 -0.015704213 -0.047112636 0.066742904 0.031408425 0.0 0.117781594 0.098151326
0.019630266 -0.17274635 -0.12955976 -0.019630266 -0.10992949 -0.07066896 -0.011778159 0.26304555

recog/cnn/conv2d_1/Conv2D i1 [96, 3, 3, 64] scale=0.010121762 zero_point=0
00000000: fe0c 1101 021e fc02 01fe 02fb 0302 09dc
00000010: 0003 fe10 0f0c e4ee f902 0605 0c16 0d0a
00000020: 0c0e e9d5 0af9 04f1 08ff f6fd 020a 09fe
00000030: f414 070b 0d02 fefb fb05 ed07 16fc 0902
00000040: fffe fc07 f203 f604 04fe fff5 ea03 fcf8
00000050: e9ea f7fe f9f9 eefa 09f7 fb05 0bf2 f6fe
00000060: 07f7 e9f6 02ed fae5 f8f8 ef0a 0200 f700
00000070: ffef f7fa 02f9 f2ff f9fe 050a 07f4 050b
00000080: 0003 defe e6f9 f2f6 15eb fefc 0901 07fd
00000090: f7fe 02e5 fef7 1afe 17fa fafa f801 f301
000000a0: fc01 02fb f705 f0fd f1ef ec03 f905 fce1
000000b0: fc07 10f3 fff0 fcf0 fb0e 14f7 09ff 0af4
000000c0: 06d0 0e0a 1204 1508 faf8 1408 e901 f2f0
000000d0: f206 07fc ff08 02f1 04f8 0503 0426 0612
000000e0: 07f1 01f6 1310 f6d8 120a fdfe ed13 150b
000000f0: 0900 f605 13fa 0bfc 0cfd fe0a ff04 fd07
-0.020243524 0.12146114 0.17206995 0.010121762 0.020243524 0.30365285 -0.040487047 0.020243524
0.010121762 -0.020243524 0.020243524 -0.05060881 0.030365285 0.020243524 0.09109586 -0.36438343
0.0 0.030365285 -0.020243524 0.16194819 0.15182643 0.12146114 -0.28340933 -0.18219171
-0.07085233 0.020243524 0.06073057 0.05060881 0.12146114 0.22267877 0.1315829 0.10121762
0.12146114 0.14170466 -0.23280053 -0.43523577 0.10121762 -0.07085233 0.040487047 -0.15182643
0.080974095 -0.010121762 -0.10121762 -0.030365285 0.020243524 0.10121762 0.09109586 -0.020243524
-0.12146114 0.20243524 0.07085233 0.11133938 0.1315829 0.020243524 -0.020243524 -0.05060881
-0.05060881 0.05060881 -0.19231348 0.07085233 0.22267877 -0.040487047 0.09109586 0.020243524
-0.010121762 -0.020243524 -0.040487047 0.07085233 -0.14170466 0.030365285 -0.10121762 0.040487047
0.040487047 -0.020243524 -0.010121762 -0.11133938 -0.22267877 0.030365285 -0.040487047 -0.080974095
-0.23280053 -0.22267877 -0.09109586 -0.020243524 -0.07085233 -0.07085233 -0.18219171 -0.06073057
0.09109586 -0.09109586 -0.05060881 0.05060881 0.11133938 -0.14170466 -0.10121762 -0.020243524
0.07085233 -0.09109586 -0.23280053 -0.10121762 0.020243524 -0.19231348 -0.06073057 -0.27328756
-0.080974095 -0.080974095 -0.17206995 0.10121762 0.020243524 0.0 -0.09109586 0.0
-0.010121762 -0.17206995 -0.09109586 -0.06073057 0.020243524 -0.07085233 -0.14170466 -0.010121762
-0.07085233 -0.020243524 0.05060881 0.10121762 0.07085233 -0.12146114 0.05060881 0.11133938
0.0 0.030365285 -0.3441399 -0.020243524 -0.2631658 -0.07085233 -0.14170466 -0.10121762
0.212557 -0.212557 -0.020243524 -0.040487047 0.09109586 0.010121762 0.07085233 -0.030365285
-0.09109586 -0.020243524 0.020243524 -0.27328756 -0.020243524 -0.09109586 0.2631658 -0.020243524
0.23280053 -0.06073057 -0.06073057 -0.06073057 -0.080974095 0.010121762 -0.1315829 0.010121762
-0.040487047 0.010121762 0.020243524 -0.05060881 -0.09109586 0.05060881 -0.16194819 -0.030365285
-0.15182643 -0.17206995 -0.20243524 0.030365285 -0.07085233 0.05060881 -0.040487047 -0.31377462
-0.040487047 0.07085233 0.16194819 -0.1315829 -0.010121762 -0.16194819 -0.040487047 -0.16194819
-0.05060881 0.14170466 0.20243524 -0.09109586 0.09109586 -0.010121762 0.10121762 -0.12146114
0.06073057 -0.48584455 0.14170466 0.10121762 0.18219171 0.040487047 0.212557 0.080974095
-0.06073057 -0.080974095 0.20243524 0.080974095 -0.23280053 0.010121762 -0.14170466 -0.16194819
-0.14170466 0.06073057 0.07085233 -0.040487047 -0.010121762 0.080974095 0.020243524 -0.15182643
0.040487047 -0.080974095 0.05060881 0.030365285 0.040487047 0.38462695 0.06073057 0.18219171
0.07085233 -0.15182643 0.010121762 -0.10121762 0.19231348 0.16194819 -0.10121762 -0.40487048
0.18219171 0.10121762 -0.030365285 -0.020243524 -0.19231348 0.19231348 0.212557 0.11133938
0.09109586 0.0 -0.10121762 0.05060881 0.19231348 -0.06073057 0.11133938 -0.040487047
0.12146114 -0.030365285 -0.020243524 0.10121762 -0.010121762 0.040487047 -0.030365285 0.07085233

recog/cnn/conv2d_2/Conv2D i1 [156, 3, 3, 96] scale=0.010575136 zero_point=0
00000000: fd01 f10b f805 ef17 05fe 0405 0b12 0401
00000010: ff07 fe02 060b 1203 06f2 faed 0202 020e
00000020: ffeb fff7 0111 05f6 1908 06fa f714 0506
00000030: 0b07 0906 f402 f900 f8fb fc06 110b 09fc
00000040: 0927 06f9 1501 070f 05f6 11fe 0401 03ed
00000050: 04eb 0205 0afd 0e01 01ef f40a 00fd fbfe
00000060: 0c0c e800 fd01 fd05 fefe f3fe 030c 04f5
00000070: 0306 fffe 040c 0003 ffeb f3f9 0d03 e7e4
00000080: 06eb 02fc fb05 fafe 120a 01ee fb11 0204
00000090: 0308 02e1 fe03 f7f9 f704 0001 0005 f603
000000a0: f70f fafc 0608 08f8 fbee 0405 0600 fbed
000000b0: f7fd ff0c 04f1 fafe f903 f302 0005 000b
000000c0: 0cf9 e507 e702 1002 f801 f908 0efa 05f6
000000d0: 08f4 070b 1301 02f8 fc18 03f7 05fa e5f7
000000e0: f9d9 0906 fb0f f1fd f602 feff 05fa 0af0
000000f0: fe02 fcee fcfe f301 fffc f1e8 06e8 ff07
-0.031725407 0.010575136 -0.15862705 0.116326496 -0.08460109 0.052875683 -0.17977731 0.24322814
0.052875683 -0.021150272 0.042300545 0.052875683 0.116326496 0.19035245 0.042300545 0.010575136
-0.010575136 0.07402595 -0.021150272 0.021150272 0.06345081 0.116326496 0.19035245 0.031725407
0.06345081 -0.1480519 -0.06345081 -0.20092759 0.021150272 0.021150272 0.021150272 0.1480519
-0.010575136 -0.22207786 -0.010575136 -0.09517623 0.010575136 0.17977731 0.052875683 -0.105751365
0.2643784 0.08460109 0.06345081 -0.06345081 -0.09517623 0.21150273 0.052875683 0.06345081
0.116326496 0.07402595 0.09517623 0.06345081 -0.12690163 0.021150272 -0.07402595 0.0
-0.08460109 -0.052875683 -0.042300545 0.06345081 0.17977731 0.116326496 0.09517623 -0.042300545
0.09517623 0.41243032 0.06345081 -0.07402595 0.22207786 0.010575136 0.07402595 0.15862705
0.052875683 -0.105751365 0.17977731 -0.021150272 0.042300545 0.010575136 0.031725407 -0.20092759
0.042300545 -0.22207786 0.021150272 0.052875683 0.105751365 -0.031725407 0.1480519 0.010575136
0.010575136 -0.17977731 -0.12690163 0.105751365 0.0 -0.031725407 -0.052875683 -0.021150272
0.12690163 0.12690163 -0.25380325 0.0 -0.031725407 0.010575136 -0.031725407 0.052875683
-0.021150272 -0.021150272 -0.13747677 -0.021150272 0.031725407 0.12690163 0.042300545 -0.116326496
0.031725407 0.06345081 -0.010575136 -0.021150272 0.042300545 0.12690163 0.0 0.031725407
-0.010575136 -0.22207786 -0.13747677 -0.07402595 0.13747677 0.031725407 -0.2643784 -0.2961038
0.06345081 -0.22207786 0.021150272 -0.042300545 -0.052875683 0.052875683 -0.06345081 -0.021150272
0.19035245 0.105751365 0.010575136 -0.19035245 -0.052875683 0.17977731 0.021150272 0.042300545
0.031725407 0.08460109 0.021150272 -0.3278292 -0.021150272 0.031725407 -0.09517623 -0.07402595
-0.09517623 0.042300545 0.0 0.010575136 0.0 0.052875683 -0.105751365 0.031725407
-0.09517623 0.15862705 -0.06345081 -0.042300545 0.06345081 0.08460109 0.08460109 -0.08460109
-0.052875683 -0.19035245 0.042300545 0.052875683 0.06345081 0.0 -0.052875683 -0.20092759
-0.09517623 -0.031725407 -0.010575136 0.12690163 0.042300545 -0.15862705 -0.06345081 -0.021150272
-0.07402595 0.031725407 -0.13747677 0.021150272 0.0 0.052875683 0.0 0.116326496
0.12690163 -0.07402595 -0.2855287 0.07402595 -0.2643784 0.021150272 0.16920218 0.021150272
-0.08460109 0.010575136 -0.07402595 0.08460109 0.1480519 -0.06345081 0.052875683 -0.105751365
0.08460109 -0.12690163 0.07402595 0.116326496 0.20092759 0.010575136 0.021150272 -0.08460109
-0.042300545 0.25380325 0.031725407 -0.09517623 0.052875683 -0.06345081 -0.2855287 -0.09517623
-0.07402595 -0.41243032 0.09517623 0.06345081 -0.052875683 0.15862705 -0.15862705 -0.031725407
-0.105751365 0.021150272 -0.021150272 -0.010575136 0.052875683 -0.06345081 0.105751365 -0.16920218
-0.021150272 0.021150272 -0.042300545 -0.19035245 -0.042300545 -0.021150272 -0.13747677 0.010575136
-0.010575136 -0.042300545 -0.15862705 -0.25380325 0.06345081 -0.25380325 -0.010575136 0.07402595

recog/cnn/conv2d_3/Conv2D i1 [224, 3, 5, 156] scale=0.010352053 zero_point=0
00000000: f5f7 0905 fc0b 0c0b 09f4 0601 fe02 fafb
00000010: 0400 0203 0606 fb01 f700 05ff 0906 00f1
00000020: 0efe f9f3 fe08 fc01 1305 06fb f9fd 0dfe
00000030: 04f8 f6f1 0308 fbfd 00f7 02fa f7fc fb05
00000040: 0a04 04fd e405 edfb fe08 fd06 f6f2 f604
00000050: ecf0 0902 e5f1 f708 06fc fa07 f7eb fd0e
00000060: fbfd 0e06 0efd fe07 f5f5 fc00 fb0a ea04
00000070: f7fe f311 0606 0f03 fe03 f7f1 fff0 fdfa
00000080: 09fb 0800 e9f5 fe02 02f5 06fb f7f7 0d01
00000090: 05f6 040a 01fb 03fd 05fa fffe 0504 03fc
000000a0: 020b fbef 09f1 ff02 02fe f707 0302 fbf6
000000b0: 050f 0809 ecfb 0104 07fb 06ef 0901 10f6
000000c0: 0e12 fbff 0705 fcf7 000d fe14 14f0 fbf2
000000d0: 0cff f607 0302 0803 0304 fd05 0b04 10fb
000000e0: e202 f4fd fe00 00f2 feea f702 f0fe fdf8
000000f0: 1cff 0402 fff7 08fa 0104 020b f8e2 fc0b
-0.11387258 -0.093168475 0.093168475 0.051760264 -0.04140821 0.11387258 0.12422463 0.11387258
0.093168475 -0.12422463 0.062112316 0.010352053 -0.020704105 0.020704105 -0.062112316 -0.051760264
0.04140821 0.0 0.020704105 0.031056158 0.062112316 0.062112316 -0.051760264 0.010352053
-0.093168475 0.0 0.051760264 -0.010352053 0.093168475 0.062112316 0.0 -0.1552808
0.14492874 -0.020704105 -0.07246437 -0.13457668 -0.020704105 0.08281642 -0.04140821 0.010352053
0.19668901 0.051760264 0.062112316 -0.051760264 -0.07246437 -0.031056158 0.13457668 -0.020704105
0.04140821 -0.08281642 -0.10352053 -0.1552808 0.031056158 0.08281642 -0.051760264 -0.031056158
0.0 -0.093168475 0.020704105 -0.062112316 -0.093168475 -0.04140821 -0.051760264 0.051760264
0.10352053 0.04140821 0.04140821 -0.031056158 -0.28985748 0.051760264 -0.19668901 -0.051760264
-0.020704105 0.08281642 -0.031056158 0.062112316 -0.10352053 -0.14492874 -0.10352053 0.04140821
-0.20704105 -0.16563284 0.093168475 0.020704105 -0.27950543 -0.1552808 -0.093168475 0.08281642
0.062112316 -0.04140821 -0.062112316 0.07246437 -0.093168475 -0.2173931 -0.031056158 0.14492874
-0.051760264 -0.031056158 0.14492874 0.062112316 0.14492874 -0.031056158 -0.020704105 0.07246437
-0.11387258 -0.11387258 -0.04140821 0.0 -0.051760264 0.10352053 -0.22774516 0.04140821
-0.093168475 -0.020704105 -0.13457668 0.17598489 0.062112316 0.062112316 0.1552808 0.031056158
-0.020704105 0.031056158 -0.093168475 -0.1552808 -0.010352053 -0.16563284 -0.031056158 -0.062112316
0.093168475 -0.051760264 0.08281642 0.0 -0.23809722 -0.11387258 -0.020704105 0.020704105
0.020704105 -0.11387258 0.062112316 -0.051760264 -0.093168475 -0.093168475 0.13457668 0.010352053
0.051760264 -0.10352053 0.04140821 0.10352053 0.010352053 -0.051760264 0.031056158 -0.031056158
0.051760264 -0.062112316 -0.010352053 -0.020704105 0.051760264 0.04140821 0.031056158 -0.04140821
0.020704105 0.11387258 -0.051760264 -0.17598489 0.093168475 -0.1552808 -0.010352053 0.020704105
0.020704105 -0.020704105 -0.093168475 0.07246437 0.031056158 0.020704105 -0.051760264 -0.10352053
0.051760264 0.1552808 0.08281642 0.093168475 -0.20704105 -0.051760264 0.010352053 0.04140821
0.07246437 -0.051760264 0.062112316 -0.17598489 0.093168475 0.010352053 0.16563284 -0.10352053
0.14492874 0.18633695 -0.051760264 -0.010352053 0.07246437 0.051760264 -0.04140821 -0.093168475
0.0 0.13457668 -0.020704105 0.20704105 0.20704105 -0.16563284 -0.051760264 -0.14492874
0.12422463 -0.010352053 -0.10352053 0.07246437 0.031056158 0.020704105 0.08281642 0.031056158
0.031056158 0.04140821 -0.031056158 0.051760264 0.11387258 0.04140821 0.16563284 -0.051760264
-0.3105616 0.020704105 -0.12422463 -0.031056158 -0.020704105 0.0 0.0 -0.14492874
-0.020704105 -0.22774516 -0.093168475 0.020704105 -0.16563284 -0.020704105 -0.031056158 -0.08281642
0.28985748 -0.010352053 0.04140821 0.020704105 -0.010352053 -0.093168475 0.08281642 -0.062112316
0.010352053 0.04140821 0.020704105 0.11387258 -0.08281642 -0.3105616 -0.04140821 0.11387258

recog/cnn/conv2d_4/Conv2D i1 [196, 1, 1, 320] scale=0.011750098 zero_point=0
00000000: f000 f60b 05fd f7ff fdf7 07f0 15f8 2010
00000010: f500 11fc 0e17 08ff 040a 0b00 0002 01fd
00000020: f1fa f808 f9fd 06fa ff04 ef07 f6ff 0607
00000030: fdf5 fcfc 040e f207 c002 01f5 f8f5 0001
00000040: 0801 00fe 02e8 00f4 fc07 04f0 f209 060b
00000050: 06f1 0005 f8ff f9e1 0106 f708 f101 fbfe
00000060: 00ec 040d 0503 f5fa 00f3 0404 00f4 0a01
00000070: ebff f909 01fd f502 ff0d fbf2 f4f5 fcef
00000080: f9fb 0405 08fd 02ff 0301 0af7 f709 f8f5
00000090: ab06 050c f800 0100 e705 fd03 fdf6 00f6
000000a0: 00f9 0cf7 06f9 f7fc 00f7 fd08 030c 00ef
000000b0: f9fe f608 03f6 fff2 fd08 f7f5 03fd 07f8
000000c0: 0808 0306 0cfe 0ef7 0403 fe02 f7f5 f7ff
000000d0: fbff ed04 f9f8 eefd fd03 0400 f602 f6f1
000000e0: f703 00f8 06f6 03f4 0c07 0907 ff0a fcfd
000000f0: eaff 00f4 18fc f703 f505 070e fbfb 0cfe
-0.18800157 0.0 -0.11750098 0.12925108 0.05875049 -0.035250295 -0.10575089 -0.011750098
-0.035250295 -0.10575089 0.082250684 -0.18800157 0.24675207 -0.09400079 0.37600315 0.18800157
-0.12925108 0.0 0.19975168 -0.047000393 0.16450137 0.27025226 0.09400079 -0.011750098
0.047000393 0.11750098 0.12925108 0.0 0.0 0.023500197 0.011750098 -0.035250295
-0.17625147 -0.07050059 -0.09400079 0.09400079 -0.082250684 -0.035250295 0.07050059 -0.07050059
-0.011750098 0.047000393 -0.19975168 0.082250684 -0.11750098 -0.011750098 0.07050059 0.082250684
-0.035250295 -0.12925108 -0.047000393 -0.047000393 0.047000393 0.16450137 -0.16450137 0.082250684
-0.7520063 0.023500197 0.011750098 -0.12925108 -0.09400079 -0.12925108 0.0 0.011750098
0.09400079 0.011750098 0.0 -0.023500197 0.023500197 -0.28200236 0.0 -0.14100118
-0.047000393 0.082250684 0.047000393 -0.18800157 -0.16450137 0.10575089 0.07050059 0.12925108
0.07050059 -0.17625147 0.0 0.05875049 -0.09400079 -0.011750098 -0.082250684 -0.36425304
0.011750098 0.07050059 -0.10575089 0.09400079 -0.17625147 0.011750098 -0.05875049 -0.023500197
0.0 -0.23500197 0.047000393 0.15275128 0.05875049 0.035250295 -0.12925108 -0.07050059
0.0 -0.15275128 0.047000393 0.047000393 0.0 -0.14100118 0.11750098 0.011750098
-0.24675207 -0.011750098 -0.082250684 0.10575089 0.011750098 -0.035250295 -0.12925108 0.023500197
-0.011750098 0.15275128 -0.05875049 -0.16450137 -0.14100118 -0.12925108 -0.047000393 -0.19975168
-0.082250684 -0.05875049 0.047000393 0.05875049 0.09400079 -0.035250295 0.023500197 -0.011750098
0.035250295 0.011750098 0.11750098 -0.10575089 -0.10575089 0.10575089 -0.09400079 -0.12925108
-0.9987584 0.07050059 0.05875049 0.14100118 -0.09400079 0.0 0.011750098 0.0
-0.29375246 0.05875049 -0.035250295 0.035250295 -0.035250295 -0.11750098 0.0 -0.11750098
0.0 -0.082250684 0.14100118 -0.10575089 0.07050059 -0.082250684 -0.10575089 -0.047000393
0.0 -0.10575089 -0.035250295 0.09400079 0.035250295 0.14100118 0.0 -0.19975168
-0.082250684 -0.023500197 -0.11750098 0.09400079 0.035250295 -0.11750098 -0.011750098 -0.16450137
-0.035250295 0.09400079 -0.10575089 -0.12925108 0.035250295 -0.035250295 0.082250684 -0.09400079
0.09400079 0.09400079 0.035250295 0.07050059 0.14100118 -0.023500197 0.16450137 -0.10575089
0.047000393 0.035250295 -0.023500197 0.023500197 -0.10575089 -0.12925108 -0.10575089 -0.011750098
-0.05875049 -0.011750098 -0.22325186 0.047000393 -0.082250684 -0.09400079 -0.21150178 -0.035250295
-0.035250295 0.035250295 0.047000393 0.0 -0.11750098 0.023500197 -0.11750098 -0.17625147
-0.10575089 0.035250295 0.0 -0.09400079 0.07050059 -0.11750098 0.035250295 -0.14100118
0.14100118 0.082250684 0.10575089 0.082250684 -0.011750098 0.11750098 -0.047000393 -0.035250295
-0.25850216 -0.011750098 0.0 -0.14100118 0.28200236 -0.047000393 -0.10575089 0.035250295
-0.12925108 0.05875049 0.082250684 0.16450137 -0.05875049 -0.05875049 0.14100118 -0.023500197
