system/system/saiv/textrecognition/stride/mSTR_Korean_LSTM.tflite (tflite, 555552 bytes, 28 tensors)

dense/bias f4 [1382]
000000 9c 6a 7a 3c c1 cf 30 3c 5f 6c eb 3c 60 8c 98 3c
       0.015284207 0.01079172 0.028738199 0.018621624
000010 e6 f5 7c 3c ce d6 c3 bb 20 6d f9 3b b9 08 0f 3c
       0.015439486 -0.0059765344 0.0076118857 0.008730107
000020 b4 f1 d4 3c 45 7b 01 bc 4e 19 0f 3d be f1 19 bc
       0.02599416 -0.007902925 0.03493624 -0.009396015
000030 23 bb 7b 3b 98 64 b5 bb b0 fe b8 3c b3 8a 99 3c
       0.0038411103 -0.0055356734 0.022582382 0.018742895
000040 e3 87 16 3d db 0d c9 3b 68 fd 42 3c 60 38 5d 3a
       0.036750685 0.006135685 0.011901237 0.00084388815
000050 75 b2 6b bb 3f 5b ca 3c a9 b8 d1 ba e8 a3 95 3c
       -0.0035964523 0.024701713 -0.0016000468 0.018266633
000060 d6 fb 33 bc 00 44 e2 3b b2 3b bd bc 00 6e ac 3b
       -0.010985335 0.006905079 -0.023099754 0.0052621365
000070 8a 10 33 39 e6 e7 c9 3c e7 4a 92 ba 63 d6 78 3c
       0.00017076932 0.02464671 -0.0011161239 0.0151878325
000080 84 14 70 3c 60 a9 ba bc d6 90 44 3c 82 c0 2f bb
       0.014653329 -0.022785842 0.011997422 -0.0026817624
000090 63 f4 9e 3c 7e 57 0e bc a8 ca af 39 21 26 b2 bb
       0.019403642 -0.008687852 0.00033529592 -0.005436674
0000a0 1e c5 5e 3c c2 ac ce 3a 40 1f ba bc 2b b2 a3 bb
       0.013596801 0.0015768039 -0.02271998 -0.0049956045
0000b0 be 3b 2e 3c 32 6d 57 ba 89 fb 86 3a 4f 37 db 3b
       0.010634361 -0.00082178705 0.0010298352 0.006689943
0000c0 14 79 b1 3c 21 d3 04 3c a0 59 57 3a 95 af 01 3b
       0.02166418 0.008106978 0.0008214954 0.0019788493
0000d0 b8 8f dc bc 0e 33 c0 3c cc 11 ee 3b 87 78 8d 3c
       -0.026924 0.023461845 0.007265305 0.017269386
0000e0 d0 eb ab bb a5 94 0e bc 0a a0 76 3c f7 a6 23 bc
       -0.005246617 -0.008702432 0.015052805 -0.009988538
0000f0 72 35 ad 3c 8e e0 4a 3c 51 6f c2 3c 46 41 24 3c
       0.021143649 0.01238264 0.02373472 0.010025328
000100 cb 28 80 3c 04 0b 3c 3c eb 10 b9 bc db 91 87 bc
       0.015644452 0.011477236 -0.022591075 -0.016549041
000110 eb 75 ba bb 06 73 3a bc 09 2c af 3c 76 4c 83 bb
       -0.0056903264 -0.011379963 0.021383302 -0.0040069176
000120 9b c0 94 bc 99 f3 01 bd f0 4a 32 3c c3 c1 a2 bc
       -0.018158248 -0.031726453 0.010882124 -0.019867783
000130 a8 e5 e2 bb 6f 9b 07 bc 4c 88 87 3c cc 44 7e bc
       -0.00692435 -0.008276804 0.016544484 -0.015519332
000140 9d af b1 3b 9c 9f 9a bb bd ae 05 3a c2 e0 81 bb
       0.005422546 -0.004718734 0.00050995854 -0.003963561
000150 47 b9 aa 3a 2e fc 02 3c c6 dd 02 3d 6e 31 5c bc
       0.0013025188 0.007994695 0.03194978 -0.013439519
000160 8d 85 e5 3b b8 78 9b 3c 76 aa ee bc 49 e2 b4 bb
       0.007004446 0.018978462 -0.029134016 -0.0055201394
000170 7e 99 98 3b 05 bb c0 3b 37 35 b0 ba 4d 1e 3e bc
       0.0046569696 0.0058816695 -0.0013443594 -0.011603904
000180 eb 01 42 bb 05 0c b6 bc 48 23 4a 3a ec 2e ef bc
       -0.0029603194 -0.022222528 0.0007710946 -0.029197179
000190 8c 6e ae bc 4c 82 f7 bb 1c e9 8c bc 05 d4 69 bb
       -0.021292947 -0.0075533744 -0.017200999 -0.0035679352
0001a0 e0 36 89 bc 29 d7 1c ba b7 89 62 bc 23 2d e0 bb
       -0.0167498 -0.0005982989 -0.013826779 -0.006841318
0001b0 4b 0e 57 bc 13 8b ea bb cb 62 e1 3a a3 e0 c4 3c
       -0.013125966 -0.007157692 0.001719558 0.024032896
0001c0 a8 39 57 bc 56 e5 72 bb ba 54 0b bd d7 01 b1 ba
       -0.013136305 -0.0037062964 -0.03401635 -0.0013504577
0001d0 7f b7 45 ba fc 79 19 bc bd 02 75 bc 30 6c ff 3b
       -0.00075422967 -0.009367462 -0.014954266 0.0077948794
0001e0 dc f4 4f bc 94 5e 1c bc cf 38 de 3b fd 42 82 bc
       -0.012692656 -0.009544034 0.0067816745 -0.015901083
0001f0 9d c3 5b bb c5 10 4e bb 48 44 aa bc 57 c2 8d bc
       -0.0033533343 -0.00314431 -0.020784512 -0.017304583
000200 a1 c1 22 bc c5 4b 4f bc 70 64 74 bc ca 00 d7 bb
       -0.00993386 -0.012652342 -0.014916524 -0.0065613734
000210 8f 4d b6 bc 10 b2 fb bb 7d 14 ab bc a0 49 74 bc
       -0.02225378 -0.007681139 -0.020883793 -0.014910132
000220 f3 75 87 bb 5e d9 95 bc 4d 3e 95 bb d5 27 0d bd
       -0.0041339337 -0.018292125 -0.004554546 -0.034461815
000230 f0 30 6d bc 87 d1 85 3b 7b 73 1c 3b 58 f5 19 bc
       -0.014477 0.0040838155 0.0023872543 -0.009396873
000240 fb ac fa bb d1 89 6e bc 90 f2 05 bc 31 66 85 bc
       -0.0076500154 -0.014559225 -0.008175507 -0.01628408
000250 7f 54 28 bc 3f 6d f5 bc 08 cc be 3b 11 a7 ac 3a
       -0.010274052 -0.02995932 0.0058226623 0.0013172348
000260 58 8c 9f bc 9f c6 00 bd 94 a5 da bb 10 5c b1 bc
       -0.0194761 -0.03143942 -0.0066725705 -0.021650344
000270 14 9e 88 bc e1 b4 a0 bc 1f 57 4d bc b6 c2 66 3b
       -0.01667694 -0.0196175 -0.012532978 0.0035211272
000280 75 78 1b 3c 3e a9 b9 bc cc 8a 0a bc ed 86 2f bb
       0.009489168 -0.022663709 -0.008455943 -0.0026783303
000290 83 cf f7 bc fc c4 81 bb ee 7e 20 bc 5b 09 71 bc
       -0.030250316 -0.00396025 -0.009795887 -0.014711703
0002a0 c0 5f ec bb 6b 08 70 bc 11 cd ec bb 11 0d 76 bc
       -0.0072135627 -0.0146504445 -0.0072265943 -0.015017764
0002b0 1d c8 2a bc e5 c5 4c bc 1f 43 a3 bc 4c f4 70 bc
       -0.010423687 -0.012498354 -0.019929467 -0.014706682
0002c0 a2 4c b0 3b 91 c3 16 3b 27 87 b5 3b 97 d9 df bc
       0.005380229 0.002300475 0.005539793 -0.027325435
0002d0 b7 d9 a1 bc ea 7b 59 bc 52 3c 86 bc 19 67 dc bc
       -0.019757135 -0.013274172 -0.016386185 -0.02690463
0002e0 b5 cc c7 bc 2f 9e 7a bc d8 04 48 b9 79 6c 66 b8
       -0.024389604 -0.015296503 -0.00019075291 -5.4937296e-05
0002f0 ad c9 5c bc 6f 1d 8d 3c 08 0c 2d 3c 97 5f 6f bc
       -0.013475818 0.01722595 0.0105619505 -0.014610193
000300 8f a9 d1 bb cc c7 af bc 5b cf be bc 8d b6 e4 bb
       -0.006398387 -0.021457575 -0.023292234 -0.0069797696
000310 af f1 e3 bc ba 83 e9 bb 9d a2 5e bc f6 2f c1 bc
       -0.027825205 -0.0071262987 -0.013588575 -0.02358244
000320 ee a9 17 bc b2 37 c3 bb 39 29 20 bc ba f1 0a bb
       -0.009256823 -0.005957567 -0.009775453 -0.002120121
000330 81 8d 87 bc 37 73 4d bc fc 6b 1a bc 3f 50 23 bb
       -0.016546967 -0.012539676 -0.00942516 -0.0024919657
000340 18 03 0e bc a6 0b f6 bc 07 9e 85 bc 6a 97 b9 bc
       -0.00866773 -0.030034851 -0.016310705 -0.022655208
000350 31 14 48 ba 68 f2 48 bc d1 4c 3c 3c fa 1c 9d 3a
       -0.0007632403 -0.012264825 0.011492924 0.0011986785
000360 21 72 2f bc fa 36 de bc 17 c2 4c bc 34 ad c5 3b
       -0.010708363 -0.027125824 -0.0124974465 0.0060326103
000370 7b 45 82 bb 6c 04 5f bc 8b cb 8e bc d7 31 55 bc
       -0.003975568 -0.013611894 -0.017431041 -0.013012371
000380 dc 56 05 bc e8 16 7f bc 65 eb 12 3c 07 50 cd bc
       -0.008138385 -0.015569426 0.008967255 -0.025062574
000390 44 90 26 bb 12 9b a2 bc 5f bc b7 3b 8a 96 21 bc
       -0.002541558 -0.019849334 0.0056071724 -0.009862551
0003a0 e5 22 dc bb 5d b1 94 3b 5d 29 9e bc d4 1a 53 3c
       -0.006718027 0.004537745 -0.019306833 0.012884814
0003b0 47 9e 1b bb 4a 6f d7 bb 9c 0a 0a bd 8c 0c 36 bc
       -0.0023745464 -0.006574546 -0.033701524 -0.01111139
0003c0 16 fd 40 3c de 0f 26 3c b4 4f d4 bb e2 35 43 bc
       0.01177909 0.010135619 -0.006479228 -0.011914702
0003d0 0c b1 0b bc 3a 53 00 bd bd fe ec bb b5 31 c5 bb
       -0.008526098 -0.03132937 -0.0072325156 -0.0060178884
0003e0 8e 9e cb bc 66 9c b0 bb ed 7b 95 bc 5b 40 be bb
       -0.024855878 -0.005389738 -0.018247569 -0.0058060116
0003f0 58 a8 2f bc 8d c8 e3 bc 00 1e 9e bc 8d 88 24 bc
       -0.010721289 -0.027805591 -0.019301414 -0.010042322

recog/birnn/bidirectional_rnn/bw/rnn3/cell_bias f4 [196]
000000 5f 66 fb bc c1 bd 50 3d 16 74 ec 3b 3c cd 3e 3d
       -0.030688463 0.050962213 0.007215987 0.046582446
000010 eb 9a c7 3c 90 7d 62 bd d5 ec da bb a0 b9 d3 3d
       0.024365863 -0.055295527 -0.0066810646 0.103381395
000020 18 d8 dc bc c4 95 80 3b 17 33 cd bd 63 fb 46 bd
       -0.02695851 0.0039241035 -0.1001951 -0.048579585
000030 be 5b bb bd dd 54 25 3d 34 4b b4 3c 4d 9b 70 bd
       -0.09148358 0.040364135 0.022008516 -0.058741856
000040 ea ab 96 bd a5 7c 32 3e 94 05 73 be f3 f7 55 bd
       -0.07357009 0.1743036 -0.23732597 -0.052238416
000050 ec c6 61 bd d9 dc 94 bd f5 08 ec 3d 62 dd 86 bc
       -0.055121347 -0.07268686 0.11525146 -0.016462985
000060 81 7d 95 bd 36 21 7b 3e 5e 89 a2 3d c0 e8 98 3d
       -0.072993286 0.24524388 0.07936357 0.074662685
000070 16 12 d8 bd 3d f5 7a bd 04 b9 80 bd aa 96 a2 3d
       -0.105503246 -0.061269034 -0.06285289 0.07938893
000080 69 a5 e9 3c bb 3b bc bc d8 a6 19 3b c8 05 1c bd
       0.028521257 -0.0229777 0.0023445394 -0.03809145
000090 9e 00 75 bd 39 1a 84 3d ab 21 64 3e ee fb e1 bc
       -0.05981504 0.06450314 0.22278468 -0.02758595
0000a0 94 4b 5f bc 20 82 0e bd ba 5a 1b bc 05 e9 9b bd
       -0.013628859 -0.034792066 -0.00948208 -0.07612804
0000b0 12 8c 25 be 02 8a 9b 3d a7 6d e3 bc bb 0e 46 bd
       -0.16166714 0.07594682 -0.027762247 -0.04835389
0000c0 bc cc 86 bd 34 86 60 3d 98 f9 58 bc 0b e1 0d be
       -0.06582019 0.054815486 -0.013243102 -0.13855378
0000d0 c1 d1 0b be 94 63 ac bc 77 66 33 bd 06 4d b7 bd
       -0.13654234 -0.021043576 -0.04379889 -0.08950238
0000e0 9a ea 3b bc 27 85 f2 3d e1 9b e3 3c f8 dc e9 bd
       -0.011469508 0.11841803 0.02778429 -0.114190996
0000f0 95 6b 0b bd 63 88 5a 3e 5b b4 c2 bd b8 fa 54 bd
       -0.034038145 0.2134109 -0.09507056 -0.051996917
000100 49 7a d7 bd a6 45 d5 3d 03 73 92 bc 59 6b 54 3c
       -0.10521371 0.10413675 -0.017877107 0.012965047
000110 d8 44 5c bd 33 bf 76 3d d2 ab 72 3d b1 e4 8f bd
       -0.053776592 0.060240936 0.059245892 -0.07026041
000120 75 98 97 3e 39 4e 0c 3e 22 b2 b8 bd 11 93 49 bd
       0.29608503 0.13701715 -0.09018351 -0.04921252
000130 9c 48 e3 3c 78 2d 86 3d d0 b5 0a bb 16 94 4b be
       0.027744584 0.06551641 -0.0021165498 -0.19880709
000140 52 a2 54 bd 50 bb ae 3d 45 dc 2f 3d 08 80 0c be
       -0.051912613 0.08531821 0.042934675 -0.13720715
000150 a4 06 d9 bd 8a 1d 2f 3d d4 f5 50 3e ec 14 a6 bd
       -0.1059697 0.04275278 0.20406276 -0.08109459
000160 29 aa 2c 3e 56 ee 82 3d 21 6a 5e 3c 70 87 b3 3d
       0.16861786 0.06393115 0.013575108 0.08766067
000170 2f 0c 98 bd 2a ac 98 3d 3b 3f 01 bd 0a e7 1d bd
       -0.07424199 0.07454713 -0.031554442 -0.038550414
000180 b6 78 b1 3d 27 16 98 3c 3a 96 ef bc b5 b4 c9 bd
       0.08665602 0.01856525 -0.029246438 -0.0984892
000190 c1 41 32 be 61 48 92 3b 0f 48 8b bd cd ee 96 bd
       -0.17407896 0.0044641946 -0.068008535 -0.073697664
0001a0 9c 3e ff 3c e6 40 ae 3c 0b 1a 98 3c 2c e0 b1 3d
       0.031157784 0.02127118 0.018567106 0.086853355
0001b0 3e fc c8 3b 4f 5d 3f bd 12 7b 45 3c 76 06 0a bd
       0.0061335852 -0.046719845 0.012053268 -0.033697568
0001c0 f2 5c 8d 3d 50 62 16 be 41 9b a9 3c 8a 6c b4 3c
       0.069024935 -0.1468594 0.020703914 0.022024412
0001d0 61 3f 9e bc a1 63 c3 bd a4 36 a9 3d 80 d2 06 bd
       -0.01931733 -0.09540487 0.08262375 -0.032915592
0001e0 75 eb 5f bd 13 b9 64 3c 2d d4 19 be be ee 56 bd
       -0.05466791 0.013960141 -0.15022345 -0.052473776
0001f0 ed 31 9a 3c 5d 82 2b 3d 1a 4f 33 bd ce 74 d6 bd
       0.018822635 0.04187237 -0.04377661 -0.104714975
000200 97 26 6a bd 62 69 67 bc c8 9d 07 be 3e 84 03 3d
       -0.05716571 -0.014124246 -0.13243783 0.032108538
000210 18 6e 4a 3e e5 e0 53 bc c8 19 0c 3d 22 15 5d 3e
       0.1976856 -0.012932037 0.034204274 0.21590093
000220 68 9e ab ba bd 60 d4 bc 8e cf 35 3d 3e 9a 28 3e
       -0.0013093473 -0.025925035 0.044387393 0.16465089
000230 1c f5 70 3d 92 dc 07 3e 4e 9d fd bd b1 12 a5 bc
       0.058827505 0.13267735 -0.12383519 -0.020150514
000240 58 7d a1 bd 25 90 52 bc 2b a2 eb bb b3 8a d9 3d
       -0.078852355 -0.01285175 -0.007190963 0.10622158
000250 4a 44 ad bd 90 96 8c 3d f2 80 75 bd 61 3d ad 3c
       -0.08460291 0.06864655 -0.059937425 0.021147432
000260 e3 fc 16 be 40 06 39 be d7 3e d8 bd 5f a2 f9 bd
       -0.14744906 -0.1806879 -0.10558861 -0.12189173
000270 33 de 44 bd a1 b6 bf 38 81 fb 61 3d 4e 43 5f bb
       -0.04806347 9.141607e-05 0.055171493 -0.0034067216
000280 5f 03 f9 3d cd f9 ea 3c 38 da ad 3d 46 37 97 3d
       0.12158846 0.028683567 0.084888875 0.073835894
000290 2b 96 d1 3c e7 2a af bd ce ce 34 bd cc 12 b5 bd
       0.025584301 -0.08553105 -0.044142537 -0.08841476
0002a0 e5 12 39 bd 17 e4 9a 3d 47 f6 c5 bc 22 cc 22 be
       -0.045184035 0.07563036 -0.024165286 -0.15898183
0002b0 fc 3b ce bc a7 28 63 3d 12 9c ce bd 58 87 39 3e
       -0.025175087 0.05545869 -0.10088362 0.18118036
0002c0 32 40 78 be be 98 c2 3c fb 94 b9 bd a6 aa 0b 3d
       -0.24243239 0.023754474 -0.09061619 0.03409829
0002d0 2c 83 1e bd 82 ff f2 3b 03 6c 55 bd 78 93 89 bc
       -0.038699314 0.007415713 -0.05210496 -0.016793951
0002e0 a3 4f e8 bc e7 02 d8 3c 77 79 b0 bd 42 1b 63 be
       -0.028358286 0.026368571 -0.086169176 -0.22178367
0002f0 d7 9f da bc f7 cd 73 bd df 00 b6 bd e7 e9 9c 3c
       -0.026687546 -0.059522595 -0.08886885 0.019154502
000300 0f b2 a1 3d 7d 46 66 bd 22 8b 2b 3d bf 53 c2 bd
       0.0789529 -0.056219567 0.041880734 -0.094886295

recog/birnn/bidirectional_rnn/bw/rnn3/cell_to_cell_w i1 [196, 48] scale=0.004326786 zero_point=0
000000 e8 22 24 dc fd 08 3f 18 f2 03 1d e3 fc 09 0d f0
       -0.10384286 0.14711072 0.1557643 -0.1557643 -0.012980358 0.034614287 0.2725875 0.10384286 -0.060575 0.012980358 0.12547679 -0.12547679 -0.017307144 0.038941074 0.056248218 -0.069228575
000010 eb e8 1f 02 11 eb 09 f6 03 0b 0f 03 0e 09 0d 28
       -0.090862505 -0.10384286 0.13413036 0.008653572 0.07355536 -0.090862505 0.038941074 -0.04326786 0.012980358 0.047594644 0.06490179 0.012980358 0.060575 0.038941074 0.056248218 0.17307144
000020 f9 e5 fd f6 2a fb e0 0b 20 19 e4 2c 16 35 f0 19
       -0.0302875 -0.11682322 -0.012980358 -0.04326786 0.18172501 -0.02163393 -0.13845715 0.047594644 0.13845715 0.108169645 -0.12115 0.19037858 0.09518929 0.22931965 -0.069228575 0.108169645
000030 1a 0d fc 1d dc 42 fe 0f ec e8 13 15 0a ed 00 2d
       0.112496436 0.056248218 -0.017307144 0.12547679 -0.1557643 0.28556788 -0.008653572 0.06490179 -0.08653572 -0.10384286 0.08220893 0.090862505 0.04326786 -0.08220893 0.0 0.19470537
000040 09 10 f9 0d f2 03 e8 e2 08 05 08 e9 25 f5 05 13
       0.038941074 0.069228575 -0.0302875 0.056248218 -0.060575 0.012980358 -0.10384286 -0.12980358 0.034614287 0.02163393 0.034614287 -0.09951608 0.16009107 -0.047594644 0.02163393 0.08220893
000050 02 f1 f3 17 34 e1 dd 02 05 e9 f5 03 ed 02 ee d2
       0.008653572 -0.06490179 -0.056248218 0.09951608 0.22499287 -0.13413036 -0.1514375 0.008653572 0.02163393 -0.09951608 -0.047594644 0.012980358 -0.08220893 0.008653572 -0.07788215 -0.19903216
000060 fb 0e 05 24 04 fd 08 fa ee ff fa f4 04 18 fd ee
       -0.02163393 0.060575 0.02163393 0.1557643 0.017307144 -0.012980358 0.034614287 -0.025960715 -0.07788215 -0.004326786 -0.025960715 -0.05192143 0.017307144 0.10384286 -0.012980358 -0.07788215
000070 05 fb 0b f2 01 f3 fa 17 fa 0e 03 ff 0e f4 fb 03
       0.02163393 -0.02163393 0.047594644 -0.060575 0.004326786 -0.056248218 -0.025960715 0.09951608 -0.025960715 0.060575 0.012980358 -0.004326786 0.060575 -0.05192143 -0.02163393 0.012980358
000080 fd f1 f8 07 00 01 f6 0b f8 fa f0 ff 01 0e f9 12
       -0.012980358 -0.06490179 -0.034614287 0.0302875 0.0 0.004326786 -0.04326786 0.047594644 -0.034614287 -0.025960715 -0.069228575 -0.004326786 0.004326786 0.060575 -0.0302875 0.07788215
000090 f3 e1 de 0f 04 f3 c6 d9 04 0c f1 09 fb eb ec fa
       -0.056248218 -0.13413036 -0.14711072 0.06490179 0.017307144 -0.056248218 -0.25095358 -0.16874465 0.017307144 0.05192143 -0.06490179 0.038941074 -0.02163393 -0.090862505 -0.08653572 -0.025960715
0000a0 ef 11 26 0f fd ed f9 03 03 04 26 fa e5 12 49 e3
       -0.07355536 0.07355536 0.16441786 0.06490179 -0.012980358 -0.08220893 -0.0302875 0.012980358 0.012980358 0.017307144 0.16441786 -0.025960715 -0.11682322 0.07788215 0.31585538 -0.12547679
0000b0 2f 01 10 09 d8 e9 01 fc ed f4 ff 05 f5 fe 14 10
       0.20335893 0.004326786 0.069228575 0.038941074 -0.17307144 -0.09951608 0.004326786 -0.017307144 -0.08220893 -0.05192143 -0.004326786 0.02163393 -0.047594644 -0.008653572 0.08653572 0.069228575
0000c0 f2 f5 12 03 16 ee e4 e6 15 f9 00 11 09 f7 0a ee
       -0.060575 -0.047594644 0.07788215 0.012980358 0.09518929 -0.07788215 -0.12115 -0.112496436 0.090862505 -0.0302875 0.0 0.07355536 0.038941074 -0.038941074 0.04326786 -0.07788215
0000d0 fd e7 02 1d 19 0c 1f 13 04 15 ff f1 e6 05 f4 e0
       -0.012980358 -0.108169645 0.008653572 0.12547679 0.108169645 0.05192143 0.13413036 0.08220893 0.017307144 0.090862505 -0.004326786 -0.06490179 -0.112496436 0.02163393 -0.05192143 -0.13845715
0000e0 22 1b 05 27 00 06 f6 f0 e0 fb 07 27 e6 ea 14 f4
       0.14711072 0.11682322 0.02163393 0.16874465 0.0 0.025960715 -0.04326786 -0.069228575 -0.13845715 -0.02163393 0.0302875 0.16874465 -0.112496436 -0.09518929 0.08653572 -0.05192143
0000f0 e5 f7 f5 31 d9 f8 07 fc d8 e5 11 e0 06 23 1c 1f
       -0.11682322 -0.038941074 -0.047594644 0.21201251 -0.16874465 -0.034614287 0.0302875 -0.017307144 -0.17307144 -0.11682322 0.07355536 -0.13845715 0.025960715 0.1514375 0.12115 0.13413036

recog/birnn/bidirectional_rnn/bw/rnn3/cell_to_forget_w i1 [196, 48] scale=0.004372922 zero_point=0
000000 fc 0d e6 c7 16 36 28 f2 e4 05 f7 fd f4 f1 e8 09
       -0.017491687 0.056847982 -0.113695964 -0.24925654 0.09620428 0.23613778 0.17491686 -0.061220907 -0.12244181 0.021864608 -0.039356295 -0.013118765 -0.05247506 -0.065593824 -0.10495012 0.039356295
000010 06 01 e5 fc f0 10 dd e0 e2 ee f4 0a 0b 33 f2 21
       0.02623753 0.004372922 -0.11806889 -0.017491687 -0.06996675 0.06996675 -0.15305226 -0.1399335 -0.13118765 -0.07871259 -0.05247506 0.043729216 0.04810214 0.223019 -0.061220907 0.14430642
000020 f6 00 e9 d6 06 00 e8 12 0b 00 02 07 1d 1f d5 16
       -0.043729216 0.0 -0.1005772 -0.18366271 0.02623753 0.0 -0.10495012 0.07871259 0.04810214 0.0 0.008745844 0.030610453 0.12681474 0.13556057 -0.18803564 0.09620428
000030 07 1d d2 07 dd 0f f4 d7 e4 f2 0e 12 fb e2 f7 f0
       0.030610453 0.12681474 -0.2011544 0.030610453 -0.15305226 0.065593824 -0.05247506 -0.17928979 -0.12244181 -0.061220907 0.061220907 0.07871259 -0.021864608 -0.13118765 -0.039356295 -0.06996675
000040 06 f8 2a 03 f7 0a f6 1d e3 e4 fb ec 05 12 22 f3
       0.02623753 -0.034983374 0.18366271 0.013118765 -0.039356295 0.043729216 -0.043729216 0.12681474 -0.12681474 -0.12244181 -0.021864608 -0.08745843 0.021864608 0.07871259 0.14867935 -0.056847982
000050 06 fc e6 d6 e6 02 0a 06 df f7 01 fb ea d0 1e 05
       0.02623753 -0.017491687 -0.113695964 -0.18366271 -0.113695964 0.008745844 0.043729216 0.02623753 -0.14430642 -0.039356295 0.004372922 -0.021864608 -0.09620428 -0.20990025 0.13118765 0.021864608
000060 19 5c f3 ba 1e 3d 35 f6 02 2e 06 d4 28 27 f8 e0
       0.10932305 0.4023088 -0.056847982 -0.3061045 0.13118765 0.26674822 0.23176485 -0.043729216 0.008745844 0.2011544 0.02623753 -0.19240856 0.17491686 0.17054395 -0.034983374 -0.1399335
000070 e7 e5 ed dc 10 fc 11 e8 17 d8 f9 04 0e 11 f0 46
       -0.10932305 -0.11806889 -0.083085515 -0.15742518 0.06996675 -0.017491687 0.07433967 -0.10495012 0.1005772 -0.17491686 -0.030610453 0.017491687 0.061220907 0.07433967 -0.06996675 0.3061045
000080 f0 fc 07 d3 f7 15 05 fa 36 02 ef 11 3a 19 ef f3
       -0.06996675 -0.017491687 0.030610453 -0.19678149 -0.039356295 0.09183136 0.021864608 -0.02623753 0.23613778 0.008745844 -0.07433967 0.07433967 0.25362948 0.10932305 -0.07433967 -0.056847982
000090 1d 26 19 f0 1b f9 24 1d f3 1b fd ee 24 f5 f4 db
       0.12681474 0.16617103 0.10932305 -0.06996675 0.11806889 -0.030610453 0.15742518 0.12681474 -0.056847982 0.11806889 -0.013118765 -0.07871259 0.15742518 -0.04810214 -0.05247506 -0.1617981
0000a0 f8 c5 f4 e9 de 13 18 ec eb 0c c9 dd 00 0f fe ff
       -0.034983374 -0.25800237 -0.05247506 -0.1005772 -0.14867935 0.083085515 0.10495012 -0.08745843 -0.09183136 0.05247506 -0.2405107 -0.15305226 0.0 0.065593824 -0.008745844 -0.004372922
0000b0 14 08 f4 d7 11 06 02 e9 f1 14 f5 1f 0d 2a fa f1
       0.08745843 0.034983374 -0.05247506 -0.17928979 0.07433967 0.02623753 0.008745844 -0.1005772 -0.065593824 0.08745843 -0.04810214 0.13556057 0.056847982 0.18366271 -0.02623753 -0.065593824
0000c0 ea 2f 15 32 3a 1c 1b e7 e3 1c 20 cb 00 1c 18 eb
       -0.09620428 0.20552732 0.09183136 0.2186461 0.25362948 0.12244181 0.11806889 -0.10932305 -0.12681474 0.12244181 0.1399335 -0.23176485 0.0 0.12244181 0.10495012 -0.09183136
0000d0 e3 db 01 f9 0a 17 dc e6 dc 0c 05 05 0b 0f 9f 16
       -0.12681474 -0.1617981 0.004372922 -0.030610453 0.043729216 0.1005772 -0.15742518 -0.113695964 -0.15742518 0.05247506 0.021864608 0.021864608 0.04810214 0.065593824 -0.4241734 0.09620428
0000e0 da 0b 03 db 1a 28 d2 df 1b 21 f6 17 27 05 c2 1c
       -0.16617103 0.04810214 0.013118765 -0.1617981 0.113695964 0.17491686 -0.2011544 -0.14430642 0.11806889 0.14430642 -0.043729216 0.1005772 0.17054395 0.021864608 -0.27112114 0.12244181
0000f0 26 0b 0c ea ce 11 df d7 1f e9 f9 16 0a 37 03 26
       0.16617103 0.04810214 0.05247506 -0.09620428 -0.2186461 0.07433967 -0.14430642 -0.17928979 0.13556057 -0.1005772 -0.030610453 0.09620428 0.043729216 0.2405107 0.013118765 0.16617103

recog/birnn/bidirectional_rnn/bw/rnn3/cell_to_input_w i1 [196, 48] scale=0.0044860174 zero_point=0
000000 ed fd 19 b0 f7 f5 e9 00 fb 15 f3 05 d7 f1 fd eb
       -0.08523433 -0.013458053 0.11215044 -0.35888138 -0.040374156 -0.04934619 -0.1031784 0.0 -0.022430087 0.09420636 -0.058318228 0.022430087 -0.18392672 -0.06729026 -0.013458053 -0.09420636
000010 fe 07 f0 ea 07 07 ed f4 f3 3f 1f 0c f2 dd e2 0f
       -0.008972035 0.031402122 -0.07177628 -0.09869238 0.031402122 0.031402122 -0.08523433 -0.05383221 -0.058318228 0.2826191 0.13906653 0.05383221 -0.062804244 -0.15701061 -0.13458052 0.06729026
000020 f9 f8 f3 13 0d f7 01 00 ca e7 fb 0a f3 05 fb f5
       -0.031402122 -0.03588814 -0.058318228 0.08523433 0.058318228 -0.040374156 0.0044860174 0.0 -0.24224494 -0.11215044 -0.022430087 0.044860173 -0.058318228 0.022430087 -0.022430087 -0.04934619
000030 14 0c 05 ee 01 f6 e3 1a 06 23 1f fe f0 0e f7 eb
       0.089720346 0.05383221 0.022430087 -0.08074831 0.0044860174 -0.044860173 -0.1300945 0.116636455 0.026916105 0.15701061 0.13906653 -0.008972035 -0.07177628 0.062804244 -0.040374156 -0.09420636
000040 fb 11 d9 ee f8 e5 de f2 0d 1a e3 0f d0 0d e7 e6
       -0.022430087 0.076262295 -0.17495468 -0.08074831 -0.03588814 -0.12112247 -0.15252459 -0.062804244 0.058318228 0.116636455 -0.1300945 0.06729026 -0.21532884 0.058318228 -0.11215044 -0.116636455
000050 fd 1c f3 13 0b 10 fc 03 fa e5 0c 06 e5 0e 11 14
       -0.013458053 0.12560849 -0.058318228 0.08523433 0.04934619 0.07177628 -0.01794407 0.013458053 -0.026916105 -0.12112247 0.05383221 0.026916105 -0.12112247 0.062804244 0.076262295 0.089720346
000060 07 22 1d e6 e6 e7 13 0a 0b 17 07 eb f5 0c fd de
       0.031402122 0.15252459 0.1300945 -0.116636455 -0.116636455 -0.11215044 0.08523433 0.044860173 0.04934619 0.1031784 0.031402122 -0.09420636 -0.04934619 0.05383221 -0.013458053 -0.15252459
000070 e7 18 01 f6 1c f7 eb 09 f6 18 07 f2 17 0a 0d e8
       -0.11215044 0.10766442 0.0044860174 -0.044860173 0.12560849 -0.040374156 -0.09420636 0.040374156 -0.044860173 0.10766442 0.031402122 -0.062804244 0.1031784 0.044860173 0.058318228 -0.10766442
000080 12 0b fc 0b d5 ea ec 09 ee fc 21 14 d4 f8 1e 05
       0.08074831 0.04934619 -0.01794407 0.04934619 -0.19289875 -0.09869238 -0.089720346 0.040374156 -0.08074831 -0.01794407 0.14803858 0.089720346 -0.19738476 -0.03588814 0.13458052 0.022430087
000090 ec 02 ec ef fc 04 b2 08 fd e9 fd 1e cf fe 06 e7
       -0.089720346 0.008972035 -0.089720346 -0.076262295 -0.01794407 0.01794407 -0.34990937 0.03588814 -0.013458053 -0.1031784 -0.013458053 0.13458052 -0.21981485 -0.008972035 0.026916105 -0.11215044
0000a0 09 f6 02 06 fc 20 19 17 04 15 2e f8 f8 e3 e8 fd
       0.040374156 -0.044860173 0.008972035 0.026916105 -0.01794407 0.14355256 0.11215044 0.1031784 0.01794407 0.09420636 0.2063568 -0.03588814 -0.03588814 -0.1300945 -0.10766442 -0.013458053
0000b0 14 0a f5 32 3e 0f dd f9 dc ef 04 00 d1 06 ea 08
       0.089720346 0.044860173 -0.04934619 0.22430088 0.27813306 0.06729026 -0.15701061 -0.031402122 -0.16149662 -0.076262295 0.01794407 0.0 -0.21084282 0.026916105 -0.09869238 0.03588814
0000c0 23 19 ff c1 03 f9 c0 fb 11 f5 07 df f6 eb 07 f2
       0.15701061 0.11215044 -0.0044860174 -0.2826191 0.013458053 -0.031402122 -0.2871051 -0.022430087 0.076262295 -0.04934619 0.031402122 -0.14803858 -0.044860173 -0.09420636 0.031402122 -0.062804244
0000d0 ce 04 dc e1 13 15 2a fd f9 fe 12 eb de fd 18 fa
       -0.22430088 0.01794407 -0.16149662 -0.13906653 0.08523433 0.09420636 0.18841273 -0.013458053 -0.031402122 -0.008972035 0.08074831 -0.09420636 -0.15252459 -0.013458053 0.10766442 -0.026916105
0000e0 f7 ff 0a fe ed fa 09 0f ff f6 13 06 e5 f3 06 fa
       -0.040374156 -0.0044860174 0.044860173 -0.008972035 -0.08523433 -0.026916105 0.040374156 0.06729026 -0.0044860174 -0.044860173 0.08523433 0.026916105 -0.12112247 -0.058318228 0.026916105 -0.026916105
0000f0 0f 07 10 fe d7 ce e5 f6 27 2b d2 da d7 e2 1e fb
       0.06729026 0.031402122 0.07177628 -0.008972035 -0.18392672 -0.22430088 -0.12112247 -0.044860173 0.17495468 0.19289875 -0.2063568 -0.17046866 -0.18392672 -0.13458052 0.13458052 -0.022430087

recog/birnn/bidirectional_rnn/bw/rnn3/cell_to_output_w i1 [196, 48] scale=0.005365891 zero_point=0
000000 e3 12 0a 11 08 f4 0f f0 eb ff f1 c7 26 fe 0c 05
       -0.15561083 0.09658603 0.05365891 0.09122015 0.042927127 -0.06439069 0.08048836 -0.085854255 -0.112683706 -0.005365891 -0.08048836 -0.30585578 0.20390385 -0.010731782 0.06439069 0.026829455
000010 10 10 e8 18 da 15 04 0c 10 ee 0d 08 f0 04 03 0d
       0.085854255 0.085854255 -0.12878138 0.12878138 -0.20390385 0.112683706 0.021463564 0.06439069 0.085854255 -0.09658603 0.06975658 0.042927127 -0.085854255 0.021463564 0.016097672 0.06975658
000020 e7 fa f9 17 d8 03 ef f0 09 00 00 0b 2b ff 01 f0
       -0.13414727 -0.032195345 -0.037561238 0.12341549 -0.21463564 0.016097672 -0.09122015 -0.085854255 0.048293017 0.0 0.0 0.0590248 0.2307333 -0.005365891 0.005365891 -0.085854255
000030 fb e1 11 12 08 0b 00 03 fb 02 12 12 12 ff f5 0f
       -0.026829455 -0.16634262 0.09122015 0.09658603 0.042927127 0.0590248 0.0 0.016097672 -0.026829455 0.010731782 0.09658603 0.09658603 0.09658603 -0.005365891 -0.0590248 0.08048836
000040 1e e0 f6 f5 ee 04 f6 fd 07 23 e6 06 0f f1 ff eb
       0.16097672 -0.17170851 -0.05365891 -0.0590248 -0.09658603 0.021463564 -0.05365891 -0.016097672 0.037561238 0.18780619 -0.13951316 0.032195345 0.08048836 -0.08048836 -0.005365891 -0.112683706
000050 06 05 f9 12 0b 19 fc e4 0d 19 f4 0b ff 09 07 09
       0.032195345 0.026829455 -0.037561238 0.09658603 0.0590248 0.13414727 -0.021463564 -0.15024495 0.06975658 0.13414727 -0.06439069 0.0590248 -0.005365891 0.048293017 0.037561238 0.048293017
000060 f9 0e 06 12 ea 08 ee 01 07 fc 05 1f 01 12 00 f7
       -0.037561238 0.075122476 0.032195345 0.09658603 -0.1180496 0.042927127 -0.09658603 0.005365891 0.037561238 -0.021463564 0.026829455 0.16634262 0.005365891 0.09658603 0.0 -0.048293017
000070 f7 fc 14 0b 15 02 fd 01 19 f2 13 f3 0c dc f9 f9
       -0.048293017 -0.021463564 0.10731782 0.0590248 0.112683706 0.010731782 -0.016097672 0.005365891 0.13414727 -0.075122476 0.10195193 -0.06975658 0.06439069 -0.19317207 -0.037561238 -0.037561238
000080 f1 16 e7 ed 21 0c 05 05 0a ed e4 ee 0e ea fb 10
       -0.08048836 0.1180496 -0.13414727 -0.10195193 0.1770744 0.06439069 0.026829455 0.026829455 0.05365891 -0.10195193 -0.15024495 -0.09658603 0.075122476 -0.1180496 -0.026829455 0.085854255
000090 fc 22 10 04 24 14 f6 e0 01 f0 f3 f1 2a f7 03 1c
       -0.021463564 0.1824403 0.085854255 0.021463564 0.19317207 0.10731782 -0.05365891 -0.17170851 0.005365891 -0.085854255 -0.06975658 -0.08048836 0.22536741 -0.048293017 0.016097672 0.15024495
0000a0 f6 eb f1 f7 fd 0a ef 05 08 03 f5 06 09 14 d8 f5
       -0.05365891 -0.112683706 -0.08048836 -0.048293017 -0.016097672 0.05365891 -0.09122015 0.026829455 0.042927127 0.016097672 -0.0590248 0.032195345 0.048293017 0.10731782 -0.21463564 -0.0590248
0000b0 da fe fb 14 22 1d 0b e6 ee 12 e8 02 0f 1d 0c f4
       -0.20390385 -0.010731782 -0.026829455 0.10731782 0.1824403 0.15561083 0.0590248 -0.13951316 -0.09658603 0.09658603 -0.12878138 0.010731782 0.08048836 0.15561083 0.06439069 -0.06439069
0000c0 04 20 0f 16 24 0a fd 24 22 08 10 16 02 0d 06 ec
       0.021463564 0.17170851 0.08048836 0.1180496 0.19317207 0.05365891 -0.016097672 0.19317207 0.1824403 0.042927127 0.085854255 0.1180496 0.010731782 0.06975658 0.032195345 -0.10731782
0000d0 df f7 28 03 04 fd de ed f3 f6 e6 18 0d 00 ee fc
       -0.1770744 -0.048293017 0.21463564 0.016097672 0.021463564 -0.016097672 -0.1824403 -0.10195193 -0.06975658 -0.05365891 -0.13951316 0.12878138 0.06975658 0.0 -0.09658603 -0.021463564
0000e0 fd ea ff f7 05 14 fc db 24 19 fd df 20 1d 0a 05
       -0.016097672 -0.1180496 -0.005365891 -0.048293017 0.026829455 0.10731782 -0.021463564 -0.19853796 0.19317207 0.13414727 -0.016097672 -0.1770744 0.17170851 0.15561083 0.05365891 0.026829455
0000f0 f5 e3 f9 34 f6 26 05 18 f2 cb 0f 19 f5 0e ec f8
       -0.0590248 -0.15561083 -0.037561238 0.27902633 -0.05365891 0.20390385 0.026829455 0.12878138 -0.075122476 -0.2843922 0.08048836 0.13414727 -0.0590248 0.075122476 -0.10731782 -0.042927127

recog/birnn/bidirectional_rnn/bw/rnn3/forget_bias f4 [196]
000000 2f 76 75 3f 4f 9c 77 3f b7 3d 6b 3f c7 57 72 3f
       0.9588346 0.96722883 0.91891044 0.9466519
000010 e7 e7 5f 3f 9d 01 93 3f 5f b2 5c 3f c7 c8 8e 3f
       0.8746323 1.1484867 0.8620967 1.1155022
000020 92 5b 77 3f d5 c3 87 3f db 19 8e 3f 14 15 96 3f
       0.966241 1.0606638 1.110164 1.1725183
000030 12 02 82 3f 72 ca 88 3f ad 5b 4d 3f ec 0a 76 3f
       1.0156882 1.0686781 0.8021801 0.96110415
000040 02 09 79 3f 16 99 5d 3f d7 98 75 3f 4b 46 60 3f
       0.9727937 0.86561716 0.9593634 0.8760726
000050 10 da 83 3f 42 b1 80 3f 0f 4e 50 3f 0b fb 5e 3f
       1.0300922 1.0054095 0.8136911 0.8710181
000060 f0 50 82 3f 4b 34 50 3f 03 f1 69 3f 63 b5 86 3f
       1.018095 0.8132979 0.9138338 1.0524105
000070 6c f4 85 3f 57 a1 76 3f e8 09 77 3f a2 32 65 3f
       1.0465217 0.96339935 0.9649949 0.89530385
000080 36 09 91 3f e2 d0 66 3f fa a1 91 3f 01 d3 66 3f
       1.1330936 0.9016248 1.1377556 0.90165716
000090 68 37 72 3f 57 7c 6f 3f a7 c7 a1 3f 74 9e 76 3f
       0.94615793 0.935491 1.2639054 0.9633553
0000a0 aa 36 86 3f 62 58 8b 3f bd 8b 6e 3f 14 10 66 3f
       1.0485432 1.0886347 0.93181974 0.89868283
0000b0 7a 03 9e 3f 7e c7 7d 3f 17 6b 56 3f 5a 6d 95 3f
       1.2344811 0.99132526 0.83757156 1.1673996
0000c0 b7 0f 96 3f 4a dc 6a 3f 18 9d 8d 3f e3 5a 3c 3f
       1.1723546 0.91742384 1.1063566 0.7357618
0000d0 a8 a4 64 3f 92 1a 5a 3f 82 94 85 3f 61 fe 74 3f
       0.89313745 0.85196793 1.0435946 0.9570065
0000e0 92 a0 7b 3f 7c 4d 74 3f 7f c0 80 3f 5b 7d 6a 3f
       0.98291886 0.9543073 1.0058745 0.9159753
0000f0 2e 42 7f 3f ea b7 71 3f bd 1f 42 3f 29 2a 81 3f
       0.9971036 0.94421256 0.7582968 1.0090991
000100 a4 32 68 3f 25 e4 60 3f 65 a5 81 3f 3e fd 75 3f
       0.9070227 0.8784812 1.01286 0.9608954
000110 7f d7 5f 3f 61 6d 68 3f 9b b4 9a 3f 33 1b 8f 3f
       0.87438196 0.907919 1.2086366 1.1180176
000120 78 1c a3 3f 29 28 7a 3f 43 c2 84 3f 72 4d 7f 3f
       1.2743063 0.9771753 1.0371784 0.9972755
000130 4c f0 8c 3f e3 5c 6c 3f 28 f0 30 3f b1 03 96 3f
       1.1010833 0.92329234 0.6911645 1.1719877
000140 b9 85 74 3f c4 74 86 3f bf 92 77 3f 6a 24 83 3f
       0.95516545 1.0504384 0.9670829 1.0245488
000150 81 bf 7f 3f 78 96 67 3f 14 23 88 3f 96 77 70 3f
       0.99901587 0.9046397 1.0635705 0.93932474
000160 64 13 7b 3f 46 15 61 3f f6 87 6d 3f 12 3a 83 3f
       0.9807646 0.87923086 0.92785585 1.0252097
000170 5e b0 8f 3f 08 9e 7d 3f f4 bc 8b 3f 1e 98 86 3f
       1.1225698 0.9906926 1.0917039 1.0515172
000180 ce 44 29 3f 1a 3d 7f 3f ac c3 6d 3f 92 a7 5c 3f
       0.6612061 0.9970261 0.92876697 0.8619319
000190 6f e5 80 3f 3f f4 85 3f 73 53 87 3f 81 42 5e 3f
       1.0070018 1.0465163 1.0572342 0.86820227
0001a0 8d 46 66 3f 32 ca 6d 3f c7 d9 57 3f e4 2a 4f 3f
       0.899514 0.9288665 0.84316677 0.8092482
0001b0 58 2c 6a 3f 24 47 83 3f 55 ea 59 3f d1 c8 70 3f
       0.91473913 1.0256085 0.8512319 0.9405642
0001c0 c7 c3 7b 3f 00 be 8b 3f 31 2f 6a 3f 6a 01 54 3f
       0.9834561 1.0917358 0.9147826 0.8281466
0001d0 61 26 8b 3f b6 83 67 3f 5e fd 45 3f a3 ba 64 3f
       1.0871087 0.9043535 0.7733973 0.89347285
0001e0 a9 5d 86 3f 8d 1f 82 3f a5 7c 80 3f 21 4f 91 3f
       1.0497333 1.0165879 1.0038038 1.1352273
0001f0 a7 80 37 3f ef 33 63 3f de d8 67 3f d3 37 78 3f
       0.7168068 0.8875112 0.9056529 0.9696018
000200 41 78 79 3f b0 f6 8a 3f 86 15 80 3f fa f4 7f 3f
       0.9744912 1.0856533 1.0006568 0.9998318
000210 c5 ce 63 3f 33 45 5f 3f c4 64 7e 3f be 29 6c 3f
       0.8898738 0.87214965 0.99372506 0.92251194
000220 20 66 85 3f 3e a9 57 3f 21 f1 71 3f e7 03 85 3f
       1.0421791 0.8424262 0.9450856 1.0391816
000230 50 2f 86 3f f0 70 82 3f 72 90 69 3f 5c 82 4c 3f
       1.0483189 1.0190716 0.9123603 0.7988641
000240 de b1 63 3f d8 0f 86 3f 2c 22 57 3f d4 05 6e 3f
       0.8894328 1.0473585 0.8403652 0.92977643
000250 74 a8 97 3f 4b 58 75 3f 42 b7 84 3f 94 08 6e 3f
       1.1848283 0.9583785 1.0368426 0.9298184
000260 0b 00 77 3f 2e 60 7a 3f 86 7a 71 3f a2 cf 8d 3f
       0.9648444 0.9780301 0.9432758 1.107899
000270 29 b5 79 3f 17 b0 5b 3f 78 00 85 3f 1a ab 8f 3f
       0.97542053 0.85815567 1.0390768 1.1224091
000280 8d b4 6c 3f 27 14 7e 3f 86 2a 84 3f 0e 04 95 3f
       0.92463 0.992495 1.0325477 1.1641862
000290 62 76 5a 3f 6c e8 70 3f 56 c5 89 3f 2c 2f 6d 3f
       0.8533689 0.9410465 1.0763347 0.92650104
0002a0 f9 54 5f 3f 32 52 70 3f 5a 51 5f 3f 10 8b 78 3f
       0.87239033 0.9387542 0.8723351 0.9708719
0002b0 fc 30 79 3f ba e1 62 3f 0e 4d 4f 3f 9b a6 8c 3f
       0.9734037 0.8862568 0.8097695 1.0988344
0002c0 13 89 8f 3f 7d fd 5f 3f 55 7d 7e 3f fd af 80 3f
       1.1213707 0.8749617 0.9940999 1.0053707
0002d0 4a 4b 84 3f 5e 9c 53 3f b6 72 55 3f 06 e1 8d 3f
       1.0335476 0.8266047 0.8337816 1.1084297
0002e0 1b 62 86 3f 66 6f 88 3f 21 96 55 3f d3 2f 80 3f
       1.049869 1.0658996 0.83432204 1.0014595
0002f0 80 2f 7e 3f c0 ca 82 3f d3 26 84 3f 56 ec 6c 3f
       0.9929123 1.0218124 1.0324348 0.9254812
000300 cb af 4c 3f 59 4a 59 3f 5c f2 9c 3f 76 61 6d 3f
       0.7995574 0.8487907 1.2261462 0.9272684

recog/birnn/bidirectional_rnn/bw/rnn3/input_bias f4 [196]
000000 99 cb d9 bd 93 1a 84 be 7d 2a 2d bd ef 88 e1 bd
       -0.10634536 -0.25801525 -0.042276848 -0.11012446
000010 46 4b 81 be e9 ba b1 bc e6 0d 07 be 66 cf a4 3d
       -0.25252742 -0.021695571 -0.13188896 0.080473706
000020 fe 4b f7 bd 52 c2 06 be 2c a8 81 3e 3e be f6 3c
       -0.12075041 -0.13160065 0.25323617 0.030120011
000030 53 3e 04 be d9 29 39 3d aa c3 e4 bd 7a 99 f8 bd
       -0.129144 0.045205925 -0.111701325 -0.12138648
000040 32 dc 5e bd 43 f9 1e 3e d3 97 6f 3d 4a ef 79 be
       -0.054409213 0.15524773 0.0584944 -0.24407688
000050 20 b3 21 be 05 a5 d3 bd 9d d9 66 be 33 2f b5 bd
       -0.15790987 -0.10334209 -0.2254395 -0.08846893
000060 ef 63 c9 3d f6 e7 f7 3d b4 d6 36 be 75 e0 83 be
       0.09833514 0.1210479 -0.1785534 -0.25757185
000070 41 e4 4b be 57 00 e7 bd 60 99 99 bc ad ff bc bd
       -0.1991129 -0.11279362 -0.018749893 -0.09228454
000080 31 ef 77 be d0 88 08 be 5e 01 b1 bd 3f fe b1 bd
       -0.24212338 -0.1333344 -0.08642839 -0.08691072
000090 f2 b3 b1 be d2 99 62 be cd 27 4a 3e 0a 3b 87 bc
       -0.347076 -0.2212899 0.19741745 -0.016507644
0000a0 f9 fd a3 be 6e dd f9 3d 23 ad 4b 3c ff a4 3f be
       -0.32029703 0.122004375 0.012431416 -0.18715285
0000b0 28 b7 0c 3e 23 ad 43 be db f8 57 be f1 66 b6 bd
       0.13741744 -0.19109015 -0.21091025 -0.08906353
0000c0 5f 80 44 3a 6d 25 61 be f6 30 03 be a6 81 4e be
       0.00074959354 -0.21986933 -0.12811646 -0.20166644
0000d0 ea cd 90 be ef d0 8e 3c 77 4e 90 be f4 5c 0f be
       -0.282821 0.017433612 -0.28184864 -0.14000303
0000e0 23 17 0d 3e e5 8d 33 be c8 fa 1b be 3b 27 2a be
       0.13778357 -0.17534597 -0.15232384 -0.16616528
0000f0 0b 8f 6f be 40 12 53 3c de 35 0f be 26 de 55 bd
       -0.2339441 0.012882769 -0.13985392 -0.05221381
000100 be 39 ff bc ee 76 90 bd 72 83 72 3d 8d ce 7b be
       -0.031155463 -0.07053934 0.059207387 -0.24590512
000110 3f 19 02 be 61 5e d7 bd 69 3e 2e 3e 5c f1 26 be
       -0.12704943 -0.10516048 0.17015995 -0.16303009
000120 54 0a ee 3e ae 2f 94 bd cb 43 7a be 7f c7 57 be
       0.46492255 -0.07235657 -0.24439923 -0.21072195
000130 fd 1c 2e 3e a8 16 66 3e f7 53 75 be fa f5 2c 3b
       0.17003246 0.2246958 -0.23957811 0.002639173
000140 3d c2 39 3d f8 21 86 3d e0 d0 36 bc 3d cd 2e 3d
       0.045351256 0.06549448 -0.011158198 0.0426762
000150 73 e6 e9 bd 51 28 88 3c 4b 4a 2d 3c c8 4d d4 3b
       -0.11420908 0.016620787 0.010576795 0.006478999
000160 3b 69 61 3e 26 2c 5a be 5a 1e 34 bd b3 68 45 be
       0.22012798 -0.21305904 -0.043974258 -0.19278221
000170 fb 58 2b be 3f 25 97 bd 6f 0f 74 bd 2a 3e 13 bd
       -0.16733162 -0.07380151 -0.05958503 -0.035947956
000180 7a 4b 86 bd 01 a3 97 bd 73 e9 47 be cc c2 95 bd
       -0.06557365 -0.074041374 -0.19522648 -0.07312545
000190 a9 ea 43 39 01 34 34 bd d2 7b 81 be 6e 2e 0a be
       0.00018684067 -0.043994907 -0.2528978 -0.13494274
0001a0 64 be 56 be 3f ec 4c be 39 3b 14 be 0a e8 49 be
       -0.20971066 -0.20011996 -0.14475717 -0.19717422
0001b0 1b 6a a3 bd 2c 6d 85 be 39 0d 0e be b9 81 4f be
       -0.079792224 -0.26059854 -0.13872232 -0.20264329
0001c0 af b8 ae 3d 85 0c 1d 3d 3c ba a1 bd 57 8e 15 be
       0.08531319 0.038342018 -0.078968495 -0.1460508
0001d0 7c 68 10 be 7b 04 7f bd 4a 33 3f be 1e 3f 42 be
       -0.14102358 -0.062260132 -0.18671909 -0.1896939
0001e0 06 85 d3 3c 03 df 1e bd a2 0a 15 3e fc 6c f6 3d
       0.025820266 -0.0387869 0.14554837 0.12032506
0001f0 8c fb 2c be 84 c4 bb bc bb 51 0c be 18 3e 94 bc
       -0.16892833 -0.022920854 -0.13703053 -0.018096015
000200 0c 6b 51 be 05 11 14 be 19 45 d7 bd d8 64 dc be
       -0.20450991 -0.14459617 -0.10511226 -0.43045688
000210 09 43 05 be de 38 8b bd 53 c4 00 3e 25 e4 36 be
       -0.13013853 -0.06797956 0.12574892 -0.17860468
000220 53 59 89 be a9 71 06 be 25 0d 97 be 60 fe 5d bd
       -0.2682596 -0.13129295 -0.29502216 -0.05419767
000230 b3 27 88 be d6 a1 52 bd c2 06 27 3d 34 ef 59 be
       -0.26592788 -0.05142387 0.04077793 -0.21282655
000240 b1 6c 94 bc 22 fd 63 be cc 8e b1 bd b7 a3 16 be
       -0.018118234 -0.22264531 -0.086698145 -0.1471089
000250 1c 44 32 3d 0f 36 52 be 41 ec 0f be 8e db 07 bd
       0.043521985 -0.20528434 -0.14054967 -0.033168368
000260 9b 96 49 3d 4a 40 f3 3c 45 32 95 3c cc 7e bd bd
       0.049215894 0.029693741 0.018212447 -0.092527
000270 30 0f 9a bd ca 76 45 be 1b 08 e2 bd d1 57 20 be
       -0.07522428 -0.19283596 -0.11036702 -0.156585
000280 5a 50 39 bd b1 d5 4a bd ec bd 7d be 87 74 d0 bd
       -0.045242645 -0.0495202 -0.2477948 -0.10178476
000290 1d f3 f0 bd 34 46 1f be d5 c1 89 be 52 0e 3f be
       -0.1176512 -0.15554124 -0.26905695 -0.18657807
0002a0 b8 17 61 be 81 b9 a9 3b da e9 3c bd 02 cd d6 3c
       -0.21981704 0.0051795845 -0.046121456 0.026220802
0002b0 7a 27 30 be 5c 25 e7 bd 2c ec 8c bc 79 70 50 3e
       -0.17202559 -0.112864226 -0.01720246 0.20355405
0002c0 38 ba 47 3e e2 eb 37 be 7b ea be bd 68 1d 68 be
       0.1950463 -0.17961076 -0.09322067 -0.22667468
0002d0 61 e4 f1 bb 3b 14 10 be bd 75 ff bd f5 9e 63 be
       -0.007381961 -0.14070217 -0.12473629 -0.22228606
0002e0 68 2c 3f bc 7d a1 d3 bb e9 54 00 be 83 9f 56 3d
       -0.011668302 -0.00645846 -0.1253239 0.052398216
0002f0 31 24 18 be 95 4d 5b be 89 28 ca bb 16 8d 9a bd
       -0.14857556 -0.21416314 -0.006169383 -0.07546441
000300 d8 99 d3 bd 4e 8b 92 bd 37 21 55 be 86 6b 37 3e
       -0.10332078 -0.071554765 -0.20813452 0.1791211

recog/birnn/bidirectional_rnn/bw/rnn3/input_to_cell_w i1 [196, 196] scale=0.0056093377 zero_point=0
000000 03 f2 f6 f9 fe 05 03 f8 d0 16 fb f9 02 d9 0d 24
       0.016828014 -0.07853073 -0.056093376 -0.039265364 -0.011218675 0.028046688 0.016828014 -0.0448747 -0.26924822 0.12340543 -0.028046688 -0.039265364 0.011218675 -0.21876417 0.07292139 0.20193616
000010 f2 ed ec f1 e8 06 f7 e7 fc f5 03 22 f7 11 2e dc
       -0.07853073 -0.10657742 -0.11218675 -0.08414006 -0.13462411 0.033656027 -0.05048404 -0.14023344 -0.02243735 -0.061702713 0.016828014 0.19071749 -0.05048404 0.095358744 0.25802952 -0.20193616
000020 f4 14 ff ea ec 0c ff 15 f6 d0 06 f0 fc 0b e4 0b
       -0.067312054 0.11218675 -0.0056093377 -0.12340543 -0.11218675 0.067312054 -0.0056093377 0.11779609 -0.056093376 -0.26924822 0.033656027 -0.0897494 -0.02243735 0.061702713 -0.15706146 0.061702713
000030 11 fb f2 30 f1 fd 04 f4 01 da 2c e8 1b 0e 0c 12
       0.095358744 -0.028046688 -0.07853073 0.26924822 -0.08414006 -0.016828014 0.02243735 -0.067312054 0.0056093377 -0.21315484 0.24681085 -0.13462411 0.15145212 0.07853073 0.067312054 0.10096808
000040 df fe ff 17 f2 0c 21 fc 02 f4 26 19 df 02 ef 09
       -0.18510814 -0.011218675 -0.0056093377 0.12901476 -0.07853073 0.067312054 0.18510814 -0.02243735 0.011218675 -0.067312054 0.21315484 0.14023344 -0.18510814 0.011218675 -0.095358744 0.05048404
000050 1c f1 e3 f6 07 0a 22 07 00 ec fc 21 08 f5 10 f0
       0.15706146 -0.08414006 -0.16267079 -0.056093376 0.039265364 0.056093376 0.19071749 0.039265364 0.0 -0.11218675 -0.02243735 0.18510814 0.0448747 -0.061702713 0.0897494 -0.0897494
000060 0c e6 d3 f9 26 1c 29 01 f5 ed fb e8 23 d6 03 f3
       0.067312054 -0.14584278 -0.2524202 -0.039265364 0.21315484 0.15706146 0.22998285 0.0056093377 -0.061702713 -0.10657742 -0.028046688 -0.13462411 0.19632682 -0.23559219 0.016828014 -0.07292139
000070 f5 d9 f2 fb fc ef ff 0a ed 15 20 f0 dd 15 ef 26
       -0.061702713 -0.21876417 -0.07853073 -0.028046688 -0.02243735 -0.095358744 -0.0056093377 0.056093376 -0.10657742 0.11779609 0.1794988 -0.0897494 -0.19632682 0.11779609 -0.095358744 0.21315484
000080 fe 11 04 ea 0b 07 10 02 1f 11 fa 0f fb 0a 00 33
       -0.011218675 0.095358744 0.02243735 -0.12340543 0.061702713 0.039265364 0.0897494 0.011218675 0.17388947 0.095358744 -0.033656027 0.08414006 -0.028046688 0.056093376 0.0 0.28607622
000090 f8 1f f2 13 0e fa 07 01 0d ea fc 01 57 05 0b f4
       -0.0448747 0.17388947 -0.07853073 0.10657742 0.07853073 -0.033656027 0.039265364 0.0056093377 0.07292139 -0.12340543 -0.02243735 0.0056093377 0.48801237 0.028046688 0.061702713 -0.067312054
0000a0 f2 f2 08 d6 f2 df e1 1d f2 0b ea dc f8 f8 0d 04
       -0.07853073 -0.07853073 0.0448747 -0.23559219 -0.07853073 -0.18510814 -0.17388947 0.16267079 -0.07853073 0.061702713 -0.12340543 -0.20193616 -0.0448747 -0.0448747 0.07292139 0.02243735
0000b0 11 d3 f5 01 f5 ea 0c df 05 e9 e1 fb 19 ff fd f2
       0.095358744 -0.2524202 -0.061702713 0.0056093377 -0.061702713 -0.12340543 0.067312054 -0.18510814 0.028046688 -0.12901476 -0.17388947 -0.028046688 0.14023344 -0.0056093377 -0.016828014 -0.07853073
0000c0 f1 f7 ed 0a 11 db eb f0 52 10 f5 c4 0d cd f4 0c
       -0.08414006 -0.05048404 -0.10657742 0.056093376 0.095358744 -0.20754549 -0.11779609 -0.0897494 0.4599657 0.0897494 -0.061702713 -0.33656025 0.07292139 -0.28607622 -0.067312054 0.067312054
0000d0 f2 f3 13 ff 11 e1 19 f5 09 11 ea e9 1f e7 fb 0c
       -0.07853073 -0.07292139 0.10657742 -0.0056093377 0.095358744 -0.17388947 0.14023344 -0.061702713 0.05048404 0.095358744 -0.12340543 -0.12901476 0.17388947 -0.14023344 -0.028046688 0.067312054
0000e0 dc 06 1d 03 0c ec 15 de 0e 1e 2a 09 ec f1 21 ef
       -0.20193616 0.033656027 0.16267079 0.016828014 0.067312054 -0.11218675 0.11779609 -0.19071749 0.07853073 0.16828012 0.23559219 0.05048404 -0.11218675 -0.08414006 0.18510814 -0.095358744
0000f0 ef 03 07 ff fe 05 d0 3a 09 2f 23 0d 0a 00 fa 09
       -0.095358744 0.016828014 0.039265364 -0.0056093377 -0.011218675 0.028046688 -0.26924822 0.32534158 0.05048404 0.26363888 0.19632682 0.07292139 0.056093376 0.0 -0.033656027 0.05048404

recog/birnn/bidirectional_rnn/bw/rnn3/input_to_forget_w i1 [196, 196] scale=0.007924027 zero_point=0
000000 e9 ec f4 0c 04 15 fb 04 0c 02 f1 f9 00 f2 10 d5
       -0.18225262 -0.15848054 -0.09508832 0.09508832 0.031696107 0.16640456 -0.039620135 0.031696107 0.09508832 0.015848054 -0.1188604 -0.055468187 0.0 -0.11093637 0.12678443 -0.34073314
000010 04 0f 05 0b 0a 16 3c 07 ff e2 06 fd 18 f0 f3 ec
       0.031696107 0.1188604 0.039620135 0.0871643 0.07924027 0.1743286 0.4754416 0.055468187 -0.007924027 -0.2377208 0.04754416 -0.02377208 0.19017664 -0.12678443 -0.103012346 -0.15848054
000020 f1 f8 eb 00 0a 13 09 d1 fd 0e 10 ff 15 0e 0a e5
       -0.1188604 -0.063392214 -0.16640456 0.0 0.07924027 0.1505565 0.07131624 -0.37242925 -0.02377208 0.11093637 0.12678443 -0.007924027 0.16640456 0.11093637 0.07924027 -0.21394873
000030 03 ed 1f 09 15 14 1a 12 09 fd ee eb fc e9 07 fb
       0.02377208 -0.1505565 0.24564484 0.07131624 0.16640456 0.15848054 0.20602469 0.14263248 0.07131624 -0.02377208 -0.14263248 -0.16640456 -0.031696107 -0.18225262 0.055468187 -0.039620135
000040 de 07 0a 1a f1 0c ff 04 04 33 e2 11 f1 d3 f5 d8
       -0.2694169 0.055468187 0.07924027 0.20602469 -0.1188604 0.09508832 -0.007924027 0.031696107 0.031696107 0.40412536 -0.2377208 0.13470845 -0.1188604 -0.3565812 -0.0871643 -0.31696108
000050 f5 09 f7 eb 09 00 e9 fb 0c e9 f6 ef 09 01 24 09
       -0.0871643 0.07131624 -0.07131624 -0.16640456 0.07131624 0.0 -0.18225262 -0.039620135 0.09508832 -0.18225262 -0.07924027 -0.13470845 0.07131624 0.007924027 0.28526497 0.07131624
000060 eb f3 21 08 0d 03 f0 13 0d 0c ec fb 08 0e 2b 0f
       -0.16640456 -0.103012346 0.26149288 0.063392214 0.103012346 0.02377208 -0.12678443 0.1505565 0.103012346 0.09508832 -0.15848054 -0.039620135 0.063392214 0.11093637 0.34073314 0.1188604
000070 27 13 0f 13 08 01 0c 07 01 06 fc 0c 0f fd fe ef
       0.30903706 0.1505565 0.1188604 0.1505565 0.063392214 0.007924027 0.09508832 0.055468187 0.007924027 0.04754416 -0.031696107 0.09508832 0.1188604 -0.02377208 -0.015848054 -0.13470845
000080 19 1f fa fe f4 0d 15 13 f1 f9 f6 05 10 15 f9 ef
       0.19810067 0.24564484 -0.04754416 -0.015848054 -0.09508832 0.103012346 0.16640456 0.1505565 -0.1188604 -0.055468187 -0.07924027 0.039620135 0.12678443 0.16640456 -0.055468187 -0.13470845
000090 02 f3 ff 04 0c 08 05 15 f6 ef fa 04 2d fb 09 00
       0.015848054 -0.103012346 -0.007924027 0.031696107 0.09508832 0.063392214 0.039620135 0.16640456 -0.07924027 -0.13470845 -0.04754416 0.031696107 0.3565812 -0.039620135 0.07131624 0.0
0000a0 02 fd ed 0d 13 f3 ea 1c 06 ea e8 db ff ff 01 08
       0.015848054 -0.02377208 -0.1505565 0.103012346 0.1505565 -0.103012346 -0.1743286 0.22187275 0.04754416 -0.1743286 -0.19017664 -0.293189 -0.007924027 -0.007924027 0.007924027 0.063392214
0000b0 05 fc f8 fc de 03 f6 05 f5 f9 ec ef 03 ff f4 f1
       0.039620135 -0.031696107 -0.063392214 -0.031696107 -0.2694169 0.02377208 -0.07924027 0.039620135 -0.0871643 -0.055468187 -0.15848054 -0.13470845 0.02377208 -0.007924027 -0.09508832 -0.1188604
0000c0 0e da 08 29 ec fe fe fc 0e fd 02 11 f3 04 fc fa
       0.11093637 -0.301113 0.063392214 0.3248851 -0.15848054 -0.015848054 -0.015848054 -0.031696107 0.11093637 -0.02377208 0.015848054 0.13470845 -0.103012346 0.031696107 -0.031696107 -0.04754416
0000d0 f8 03 05 20 fe 15 10 02 05 f5 2f 05 f8 17 f1 fd
       -0.063392214 0.02377208 0.039620135 0.25356886 -0.015848054 0.16640456 0.12678443 0.015848054 0.039620135 -0.0871643 0.37242925 0.039620135 -0.063392214 0.18225262 -0.1188604 -0.02377208
0000e0 fb 28 e8 00 fb fa fd 07 19 f8 03 f4 00 00 15 0f
       -0.039620135 0.31696108 -0.19017664 0.0 -0.039620135 -0.04754416 -0.02377208 0.055468187 0.19810067 -0.063392214 0.02377208 -0.09508832 0.0 0.0 0.16640456 0.1188604
0000f0 fb f9 fa f1 1a 1b 05 fe ee 04 f4 0d 02 f2 1d fc
       -0.039620135 -0.055468187 -0.04754416 -0.1188604 0.20602469 0.21394873 0.039620135 -0.015848054 -0.14263248 0.031696107 -0.09508832 0.103012346 0.015848054 -0.11093637 0.22979678 -0.031696107
