system/system/etc/ipm/auf.tflite (tflite, 380096 bytes, 5 tensors)

Week_Layer1/WeekL1_Weight f4 [168, 49]
-0.15441573 0.048189834 -0.019054025 -0.056162477 0.07895616 0.018342366 0.009989504 -0.15151277
0.041629247 0.09116249 -1.7862446e-07 -6.908697e-08 -0.07947336 -0.14291415 -0.0015396476 -0.14097051
-3.9621176e-07 0.11426496 -0.05479882 0.034858402 -2.8447275e-08 0.039131794 -0.055841275 -0.11251327
-0.08060585 -0.15009746 0.083171785 -0.027651146 -1.2747755e-07 -0.16107707 0.08636218 -0.017877892
0.06684675 -8.3217844e-07 -4.47708e-07 -0.084541865 -3.3839746e-07 -0.10529871 -0.0047680736 0.076937094
-6.684855e-07 -0.034662366 -2.3847028e-07 0.056053597 -0.1401871 -2.0802831e-07 -0.09870381 -0.16285078
-0.03190714 -0.14949815 -0.050203197 0.040844325 0.048416764 0.034865472 0.022395449 -0.06929219
0.0246993 -0.13580814 -0.023226485 0.07165936 -0.13404605 -0.06887556 -0.12945993 -0.10743053
-0.057760835 0.044467103 0.0516497 -2.7269724e-08 0.033280246 -0.14930809 -0.02508387 0.021646772
0.04100588 0.064325646 -3.8118665e-07 0.05619839 -0.14383496 0.015053491 -0.12173087 -0.036118448
0.054711 -0.1433911 -0.045919977 -0.15768966 0.01815318 -7.7525414e-08 -0.06608973 0.06807447
-0.031595767 -3.9698843e-08 -0.018234923 -1.6195872e-07 0.025680475 0.04736679 -0.01611425 -0.09881755
-0.11520609 -0.10844591 -3.8604604e-08 -0.11503868 -0.121544145 -0.11892795 -0.15919387 -0.11754875
-2.2118232e-07 -5.786025e-08 -0.035782218 0.058132697 -0.12846981 -0.07083703 -0.077447 -0.11182265
-0.15912096 -0.0024077445 -0.017628953 0.08611904 0.04304925 -0.11944293 -0.07009139 -0.03458391
0.022732098 0.052957933 -0.14318511 -0.009693667 0.0556382 0.012329605 0.015142705 0.025163498
0.041544694 -0.033314124 -0.100873046 0.010027018 -5.921753e-07 0.019066866 -0.10593228 -0.080938786
0.05377914 -0.15803303 -0.16317582 -0.009363815 -0.024385855 0.034842223 -0.15404552 0.06970803
-0.14766303 0.01574761 -2.1808846e-07 0.023976544 -0.057786368 -4.1326092e-07 0.06642348 0.012152229
-0.10465373 -0.047314875 -0.12613624 -0.096781865 -2.852542e-09 0.058620565 -3.4494133e-07 0.002818139
-4.327497e-08 -0.0035912544 -0.12138252 -0.0010999888 0.076045096 -0.093764745 -0.13142477 -0.0630169
-0.120275274 0.046387013 -0.039270163 -0.16441223 -0.14251634 0.03980134 -0.114297405 -0.041236103
-3.2834365e-07 -6.763485e-08 -0.03911598 -0.008866474 -4.820611e-07 -2.5147645e-07 0.019490441 0.026884988
-0.039245218 -0.1105189 -4.406818e-07 -0.15649767 0.0044063954 -0.084284134 0.037914865 -0.12567171
-0.022445083 0.036340836 -1.5861892e-07 -0.093095064 -8.203074e-08 0.028415056 -0.0011267066 -0.12505065
-0.059127904 -2.0211208e-07 -6.986108e-07 0.018677961 -4.5433853e-07 -0.08028996 -0.017220855 -0.09864632
-0.09761088 -0.16180062 -0.016097322 -0.15886132 -1.7929746e-07 0.08061597 -0.09934914 0.0039811567
0.0048210514 0.015548699 -0.081330046 -0.050623387 0.08569655 0.03757237 0.0077216728 -2.8446255e-08
0.01879187 -0.05678688 -6.047878e-07 -6.91061e-08 -0.06692576 -0.15394098 -0.073039375 -1.9292898e-08
0.0058558322 0.04087472 -0.09945313 -0.063366845 -0.08731787 -4.5505163e-07 -0.09084118 0.018418478
0.03217716 0.048871238 0.012730662 -0.0358797 -0.10129765 -0.056668185 -0.14247848 0.034830622
0.05592263 0.011078445 0.0039145267 0.005885393 0.021282516 -2.2818143e-07 -0.04581119 -2.4545895e-07
00000000: 281f 1ebe b462 453d 3017 9cbc a00a 66bd
00000010: c4b3 a13d bb42 963c 04ab 233c 2a26 1bbe
00000020: 6e83 2a3d 66b3 ba3d ebcb 3fb4 f75c 94b3
00000030: eec2 a2bd 1658 12be 00ce c9ba 935a 10be
00000040: eeb6 d4b4 bf03 ea3d ba74 60bd afc7 0e3d
00000050: 385c f4b2 a948 203d d2b9 64bd 5b6d e6bd
00000060: ae14 a5bd 26b3 19be f855 aa3d a884 e2bc
00000070: c3e0 08b4 63f1 24be a8de b03d a874 92bc
00000080: f3e6 883d de62 5fb5 855c f0b4 4924 adbd
00000090: feac b5b4 daa6 d7bd 803d 9cbb 3291 9d3d
000000a0: f971 33b5 20fa 0dbd 1b07 80b4 7598 653d
000000b0: 358d 0fbe 635e 5fb4 3925 cabd 5bc2 26be
000000c0: 10b1 02bd 0b16 19be dea1 4dbd 614c 273d
000000d0: a850 463d 19cf 0e3d a976 b73c 10e9 8dbd
000000e0: 3056 ca3c 4a11 0bbe 7845 bebc 24c2 923d
000000f0: 5e43 09be a10e 8dbd 2591 04be 8a04 dcbd
00000100: a096 6cbd 2323 363d a38e 533d c23e eab2
00000110: de50 083d 38e4 18be b07c cdbc 9254 b13c
00000120: c8f5 273d 2abd 833d e5a5 ccb4 4830 663d
00000130: 7949 13be eba2 763c 094e f9bd f0f0 13bd
00000140: a418 603d 1ed5 12be 9616 3cbd 6679 21be
00000150: fab5 943c 0c7c a6b3 0d5a 87bd a16a 8b3d
00000160: 906a 01bd 5781 2ab3 6861 95bc e0e6 2db4
00000170: dc5f d23c ae03 423d 0802 84bc db60 cabd
00000180: 2cf1 ebbd e418 debd 36ce 25b3 6699 ebbd
00000190: 23ec f8bd 7f90 f3bd b803 23be 66bd f0bd
000001a0: 227e 6db4 0582 78b3 6090 12bd 8d1c 6e3d
000001b0: 978d 03be 0113 91bd 889c 9ebd 4603 e5bd
000001c0: 9bf0 22be 40cb 1dbb 986a 90bc 2e5f b03d
000001d0: 6954 303d 7f9e f4bd 138c 8fbd dca7 0dbd
000001e0: aa38 ba3c 6bea 583d 1e9f 12be 30d2 1ebc
000001f0: e2e4 633d 1d02 4a3c 1c19 783c ae23 ce3c
00000200: c52a 2a3d 6474 08bd 8796 cebd 5d48 243c
00000210: faf5 1eb5 1e32 9c3c 06f3 d8bd 3cc3 a5bd
00000220: 8447 5c3d 69d3 21be 9017 27be b06a 19bc
00000230: d8c4 c7bc b8b6 0e3d 1cbe 1dbe 15c3 8e3d
00000240: fa34 17be 2201 813c b32b 6ab4 756a c43c
00000250: 66b1 6cbd 26de ddb4 0909 883d 251a 473c
00000260: b254 d6bd 3ecd 41bd dc29 01be 9235 c6bd
00000270: 7306 44b1 1e1c 703d 6030 b9b4 87b0 383b
00000280: 55dd 39b3 405b 6bbb 6697 f8bd 802d 90ba
00000290: 88bd 9b3d bb07 c0bd 3794 06be 010f 81bd
000002a0: e252 f6bd 4f00 3e3d c0d9 20bd ae5b 28be
000002b0: ceef 11be bb06 233d c214 eabd 30e7 28bd
000002c0: 3547 b0b4 a73e 91b3 1438 20bd b044 11bc
000002d0: fd66 01b5 a902 87b4 6baa 9f3c e83d dc3c
000002e0: 98bf 20bd bc57 e2bd d896 ecb4 ed40 20be
000002f0: 8663 903b 299d acbd 9e4c 1b3d 16b0 00be
00000300: c0de b7bc 21da 143d d650 2ab4 a0a8 bebd
00000310: e028 b0b3 b1c6 e83c 00ae 93ba 470d 00be
00000320: 1a30 72bd 2504 59b4 2b88 3bb5 8602 993c
00000330: d0eb f3b4 106f a4bd c012 8dbc 1507 cabd
00000340: 37e8 c7bd 10af 25be 88de 83bc 8bac 22be
00000350: e984 40b4 fc19 a53d 9077 cbbd 5d74 823b
00000360: e9f9 9d3b f8bf 7e3c 5e90 a6bd 785a 4fbd
00000370: ac81 af3d 7ce5 193d 1606 fd3b fa59 f4b2
00000380: 68f1 993c 5c99 68bd b358 22b5 7b67 94b3
00000390: 5f10 89bd b4a2 1dbe ab95 95bd 88b9 a5b2
000003a0: 48e2 bf3b 406c 273d 15ae cbbd 7ac6 81bd
000003b0: b6d3 b2bd d24d f4b4 f10a babd 59e2 963c
000003c0: 33cc 033d 352d 483d 4494 503c 98f6 12bd
000003d0: 2475 cfbd e61c 68bd e1e5 11be 8eaa 0e3d
000003e0: 210f 653d 5e82 353c 6e45 803b 41da c03b
000003f0: ac58 ae3c 0902 75b4 84a4 3bbd 9fc7 83b4

mul_2/y f4 [336]
1.0 1.0 1.0 1.0 1.0 1.0 1.0 1.0
1.0 1.0 1.0 1.0 1.0 1.0 1.0 1.0
1.0 1.0 1.0 1.0 1.0 1.0 1.0 1.0
1.0 1.0 1.0 1.0 1.0 1.0 1.0 1.0
1.0 1.0 1.0 1.0 1.0 1.0 1.0 1.0
1.0 1.0 1.0 1.0 1.0 1.0 1.0 1.0
1.0 1.0 1.0 1.0 1.0 1.0 1.0 1.0
1.0 1.0 1.0 1.0 1.0 1.0 1.0 1.0
1.0 1.0 1.0 1.0 1.0 1.0 1.0 1.0
1.0 1.0 1.0 1.0 1.0 1.0 1.0 1.0
1.0 1.0 1.0 1.0 1.0 1.0 1.0 1.0
1.0 1.0 1.0 1.0 1.0 1.0 1.0 1.0
1.0 1.0 1.0 1.0 1.0 1.0 1.0 1.0
1.0 1.0 1.0 1.0 1.0 1.0 1.0 1.0
1.0 1.0 1.0 1.0 1.0 1.0 1.0 1.0
1.0 1.0 1.0 1.0 1.0 1.0 1.0 1.0
1.0 1.0 1.0 1.0 1.0 1.0 1.0 1.0
1.0 1.0 1.0 1.0 1.0 1.0 1.0 1.0
1.0 1.0 1.0 1.0 1.0 1.0 1.0 1.0
1.0 1.0 1.0 1.0 1.0 1.0 1.0 1.0
1.0 1.0 1.0 1.0 1.0 1.0 1.0 1.0
1.0 1.0 1.0 1.0 1.0 1.0 1.0 1.0
1.0 1.0 1.0 1.0 1.0 1.0 1.0 1.0
1.0 1.0 1.0 1.0 1.0 1.0 1.0 1.0
1.0 1.0 1.0 1.0 1.0 1.0 1.0 1.0
1.0 1.0 1.0 1.0 1.0 1.0 1.0 1.0
1.0 1.0 1.0 1.0 1.0 1.0 1.0 1.0
1.0 1.0 1.0 1.0 1.0 1.0 1.0 1.0
1.0 1.0 1.0 1.0 1.0 1.0 1.0 1.0
1.0 1.0 1.0 1.0 1.0 1.0 1.0 1.0
1.0 1.0 1.0 1.0 1.0 1.0 1.0 1.0
1.0 1.0 1.0 1.0 1.0 1.0 1.0 1.0
00000000: 0000 803f 0000 803f 0000 803f 0000 803f
00000010: 0000 803f 0000 803f 0000 803f 0000 803f
00000020: 0000 803f 0000 803f 0000 803f 0000 803f
00000030: 0000 803f 0000 803f 0000 803f 0000 803f
00000040: 0000 803f 0000 803f 0000 803f 0000 803f
00000050: 0000 803f 0000 803f 0000 803f 0000 803f
00000060: 0000 803f 0000 803f 0000 803f 0000 803f
00000070: 0000 803f 0000 803f 0000 803f 0000 803f
00000080: 0000 803f 0000 803f 0000 803f 0000 803f
00000090: 0000 803f 0000 803f 0000 803f 0000 803f
000000a0: 0000 803f 0000 803f 0000 803f 0000 803f
000000b0: 0000 803f 0000 803f 0000 803f 0000 803f
000000c0: 0000 803f 0000 803f 0000 803f 0000 803f
000000d0: 0000 803f 0000 803f 0000 803f 0000 803f
000000e0: 0000 803f 0000 803f 0000 803f 0000 803f
000000f0: 0000 803f 0000 803f 0000 803f 0000 803f
00000100: 0000 803f 0000 803f 0000 803f 0000 803f
00000110: 0000 803f 0000 803f 0000 803f 0000 803f
00000120: 0000 803f 0000 803f 0000 803f 0000 803f
00000130: 0000 803f 0000 803f 0000 803f 0000 803f
00000140: 0000 803f 0000 803f 0000 803f 0000 803f
00000150: 0000 803f 0000 803f 0000 803f 0000 803f
00000160: 0000 803f 0000 803f 0000 803f 0000 803f
00000170: 0000 803f 0000 803f 0000 803f 0000 803f
00000180: 0000 803f 0000 803f 0000 803f 0000 803f
00000190: 0000 803f 0000 803f 0000 803f 0000 803f
000001a0: 0000 803f 0000 803f 0000 803f 0000 803f
000001b0: 0000 803f 0000 803f 0000 803f 0000 803f
000001c0: 0000 803f 0000 803f 0000 803f 0000 803f
000001d0: 0000 803f 0000 803f 0000 803f 0000 803f
000001e0: 0000 803f 0000 803f 0000 803f 0000 803f
000001f0: 0000 803f 0000 803f 0000 803f 0000 803f
00000200: 0000 803f 0000 803f 0000 803f 0000 803f
00000210: 0000 803f 0000 803f 0000 803f 0000 803f
00000220: 0000 803f 0000 803f 0000 803f 0000 803f
00000230: 0000 803f 0000 803f 0000 803f 0000 803f
00000240: 0000 803f 0000 803f 0000 803f 0000 803f
00000250: 0000 803f 0000 803f 0000 803f 0000 803f
00000260: 0000 803f 0000 803f 0000 803f 0000 803f
00000270: 0000 803f 0000 803f 0000 803f 0000 803f
00000280: 0000 803f 0000 803f 0000 803f 0000 803f
00000290: 0000 803f 0000 803f 0000 803f 0000 803f
000002a0: 0000 803f 0000 803f 0000 803f 0000 803f
000002b0: 0000 803f 0000 803f 0000 803f 0000 803f
000002c0: 0000 803f 0000 803f 0000 803f 0000 803f
000002d0: 0000 803f 0000 803f 0000 803f 0000 803f
000002e0: 0000 803f 0000 803f 0000 803f 0000 803f
000002f0: 0000 803f 0000 803f 0000 803f 0000 803f
00000300: 0000 803f 0000 803f 0000 803f 0000 803f
00000310: 0000 803f 0000 803f 0000 803f 0000 803f
00000320: 0000 803f 0000 803f 0000 803f 0000 803f
00000330: 0000 803f 0000 803f 0000 803f 0000 803f
00000340: 0000 803f 0000 803f 0000 803f 0000 803f
00000350: 0000 803f 0000 803f 0000 803f 0000 803f
00000360: 0000 803f 0000 803f 0000 803f 0000 803f
00000370: 0000 803f 0000 803f 0000 803f 0000 803f
00000380: 0000 803f 0000 803f 0000 803f 0000 803f
00000390: 0000 803f 0000 803f 0000 803f 0000 803f
000003a0: 0000 803f 0000 803f 0000 803f 0000 803f
000003b0: 0000 803f 0000 803f 0000 803f 0000 803f
000003c0: 0000 803f 0000 803f 0000 803f 0000 803f
000003d0: 0000 803f 0000 803f 0000 803f 0000 803f
000003e0: 0000 803f 0000 803f 0000 803f 0000 803f
000003f0: 0000 803f 0000 803f 0000 803f 0000 803f

Recent_Layer1/MatMul f4 [160, 168]
-0.01222514 0.054836195 -0.06299361 -0.12737687 0.0002994946 0.05187249 0.026980393 -0.025873788
0.06280659 -0.13236524 0.084840395 -0.07571265 0.02383522 -0.01911801 0.03974856 -0.047806837
0.010251814 -0.008477516 -0.034121413 0.09437155 -0.0902352 0.073417306 -0.016203111 -0.059590634
0.07300648 0.009950216 -0.07452407 -0.086555764 -0.09841276 -0.04671727 0.06745029 -0.038983576
-0.15420374 -0.0731851 0.034828033 0.020975426 -0.096120164 0.058113 0.00166367 -0.017807193
-0.04761369 0.039620195 0.05717333 -0.008164587 -0.02210305 0.023210155 0.03846608 -0.0013859197
-0.056094937 0.026291938 -0.04553277 -0.11261894 -0.076652735 -0.18076181 -0.16458671 0.03974433
0.04342147 0.12721634 -0.055625256 -0.059960928 -0.047363065 -0.0053575733 -0.032497246 -0.010791509
-0.08741588 -0.051198225 -0.079819374 0.03591693 0.00842491 0.028618408 0.067261994 -0.04334
-0.09074523 -0.0533741 0.102972664 -0.08997268 -0.15011774 -0.075661026 0.06209421 -0.046806056
-0.02828593 -0.10433636 0.024245428 -0.028985566 -0.09502321 0.02031635 -0.052424636 0.022640938
0.056055307 0.027129184 0.022307225 -0.079068534 -0.07443617 -0.0072741015 0.06630797 0.066720545
-0.046800118 -0.11553309 -0.104319945 0.07061358 0.015143999 -0.0040898947 -0.086461164 0.06313931
-0.09789327 -0.019275315 -0.055288035 0.09252776 -0.06289165 -0.042875316 0.024156287 -0.07211596
-0.033551123 0.0665433 -0.072788306 -0.017921899 -0.041702576 -0.057990458 -0.07317101 -0.048226092
-0.016357686 -0.09572271 0.04805074 -0.08651844 -0.06527925 -0.09835799 0.109318875 0.13682875
0.10840649 0.093929365 -0.021035386 -0.024456646 -0.0367727 0.07755472 -0.010778866 -0.0020457846
-0.0718368 -0.062302068 -0.058960773 -0.023971722 0.06944728 0.083001785 0.091584355 0.083374105
-0.0037803443 -0.0008654302 0.058160678 -0.18355079 -0.12294099 -0.16904753 -0.17608526 -0.15327819
-0.09990296 -0.11436384 0.08326877 0.06931403 0.10417134 -0.03225079 -0.013905185 0.017804174
0.09824043 0.07057825 -0.07402971 0.103883676 0.06667018 0.013468172 0.094831064 0.027249988
0.07767912 -0.060085505 -0.03755265 0.033430353 -0.0250835 0.065850504 0.034148484 0.03639981
0.049877632 0.057570748 0.10142578 0.09144434 -0.031371515 0.03044274 0.000115591974 0.00034832364
0.040329985 -0.09392395 -0.04023469 0.1084296 -0.0789149 0.025775082 -0.087073505 -0.15530196
0.03896821 -0.05740469 0.040619116 -0.015447679 0.029089855 0.0061990893 -0.1328691 0.12477455
0.058612492 0.066456124 0.06447672 0.010874813 -0.030559331 -0.01589538 0.04415821 0.0052443356
-0.10797656 -0.04916306 0.09082413 -0.005137478 0.016469043 -0.12037898 -0.09510493 -0.025039278
-0.04864427 0.0153567875 0.012496287 0.037116375 -0.036585495 0.0709709 0.026371429 -0.074377954
0.06207469 0.14016715 0.075524524 0.11428103 0.038271453 -0.08992713 -0.025502758 -0.062198553
0.014018697 0.03167477 0.030383108 0.07518619 0.047375053 0.04708878 -0.041616444 -0.04657409
0.022075769 -0.0048796404 0.017361892 -0.06541805 -0.0068634646 0.033406824 0.033052903 0.048021615
0.12525378 0.08981049 0.048200414 -0.03001199 0.0072853086 -0.08956576 0.039506517 -0.05621229
00000000: f44b 48bc eb9b 603d cb02 81bd 156f 02be
00000010: 7c05 9d39 4078 543d fc05 dd3c 44f5 d3bc
00000020: bea0 803d c18a 07be cdc0 ad3d 3c0f 9bbd
00000030: 1442 c33c 5f9d 9cbc 63cf 223d 1ad1 43bd
00000040: 39f7 273c 47e5 0abc e5c2 0bbd df45 c13d
00000050: 3ccd b8bd d05b 963d 63bc 84bc 4f15 74bd
00000060: 6c84 953d 3b06 233c 13a0 98bd 2644 b1bd
00000070: a18c c9bd 9c5a 3fbd 6123 8a3d 3ead 1fbd
00000080: 96e7 1dbe 12e2 95bd d7a7 0e3d a8d4 ab3c
00000090: a6da c4bd e607 6e3d 800f da3a 64e0 91bc
000000a0: 9306 43bd c948 223d 952e 6a3d c3c4 05bc
000000b0: 7511 b5bc 3923 be3c 9c8e 1d3d c0a7 b5ba
000000c0: cec3 65bd 3162 d73c 9280 3abd c2a4 e6bd
000000d0: 1cfc 9cbd a019 39be 6b89 28be f3ca 223d
000000e0: b6da 313d 0045 023e 4fd7 63bd 9799 75bd
000000f0: c6ff 41bd 958e afbb d51b 05bd dfce 30bc
00000100: 1907 b3bd 3bb5 51bd 5778 a3bd a11d 133d
00000110: a208 0a3c 2771 ea3c a8c0 893d 4985 31bd
00000120: a3d8 b9bd cd9e 5abd 55e3 d23d 9943 b8bd
00000130: 77b8 19be 2bf4 9abd 8056 7e3d b5b7 3fbd
00000140: e5b7 e7bc 4dae d5bd 599e c63c 2373 edbc
00000150: 879b c2bd 796e a63c 37bb 56bd 7d79 b93c
00000160: 409a 653d 063e de3c a4bd b63c afee a1bd
00000170: fe71 98bd 965b eebb 79cc 873d c8a4 883d
00000180: 7bb1 3fbd 9d9c ecbd b2a5 d5bd da9d 903d
00000190: 891e 783c 8604 86bb 8d12 b1bd 2f4f 813d
000001a0: 447c c8bd 44e7 9dbc b575 62bd 327f bd3d
000001b0: 56cd 80bd 079e 2fbd 68e3 c53c 88b1 93bd
000001c0: e76c 09bd db47 883d 0912 95bd f2d0 92bc
000001d0: 52d0 2abd 6787 6dbd afda 95bd b988 45bd
000001e0: 8e00 86bc 450a c4bd dad0 443d 9430 b1bd
000001f0: 21b1 85bd ea6f c9bd 93e2 df3d d61c 0c3e
00000200: 3904 de3d 0a5e c03d 6752 acbc 4e59 c8bc
00000210: f89e 16bd 02d5 9e3d d799 30bc 9212 06bb
00000220: 2c1f 93bd 7430 7fbd da80 71bd 5860 c4bc
00000230: 603a 8e3d d7fc a93d 9490 bb3d 0bc0 aa3d
00000240: a7bf 77bb 0ade 62ba e439 6e3d bdf4 3bbe
00000250: 7cc8 fbbd cc1a 2dbe b24f 34be f5f4 1cbe
00000260: ec99 ccbd 9737 eabd d188 aa3d 84f4 8d3d
00000270: c957 d53d 6819 04bd 93d2 63bc 0fda 913c
00000280: 4732 c93d 548b 903d e39c 97bd f7c0 d43d
00000290: 608a 883d 9ca9 5c3c ca36 c23d 5e3b df3c
000002a0: 3b16 9f3d 381c 76bd cfd0 19bd 44ee 083d
000002b0: ea7b cdbc a1dc 863d 48df 0b3d f817 153d
000002c0: 7d4c 4c3d 4ecf 6b3d 52b8 cf3d 2c47 bb3d
000002d0: 6b7f 00bd 0e63 f93c f869 f238 359f b639
000002e0: 0e31 253d 335b c0bd 21cd 24bd 5710 de3d
000002f0: 239e a1bd 4426 d33c 9853 b2bd 7a07 1fbe
00000300: 219d 1f3d 2e21 6bbd 3b60 263d 4318 7dbc
00000310: d94d ee3c bb21 cb3b d60e 08be cd89 ff3d
00000320: a713 703d 261a 883d 5f0c 843d 462c 323c
00000330: 9057 fabc 0737 82bc 3ddf 343d add8 ab3b
00000340: d122 ddbd 345f 49bd 0002 ba3d 4a58 a8bb
00000350: 16ea 863c 4189 f6bd 60c6 c2bd 2c1f cdbc
00000360: 373f 47bd 099b 7b3c 3abd 4c3c 5707 183d
00000370: acda 15bd 3159 913d e508 d83c 7853 98bd
00000380: 0842 7e3d fa87 0f3e 9aac 9a3d 2c0c ea3d
00000390: 87c2 1c3d b72b b8bd 29eb d0bc e9c3 7ebd
000003a0: adae 653c 67bd 013d ffe5 f83c 38fb 993d
000003b0: 580c 423d 2ae0 403d 0176 2abd 79c4 3ebd
000003c0: 3ed8 b43c 64e5 9fbb 873a 8e3c e6f9 85bd
000003d0: eae6 e0bb 98d5 083d 7b62 073d 50b2 443d
000003e0: 8742 003e 90ee b73d cc6d 453d b4db f5bc
000003f0: 99b9 ee3b 416e b7bd 96d1 213d dc3e 66bd

Recent_Layer2/MatMul f4 [160, 160]
0.03810283 -0.013112694 0.036942173 -0.077279076 0.0364314 -0.05484831 -0.031342465 0.059284788
-0.040682763 -0.002453931 0.14160395 -0.006668629 -0.056472678 -0.111230634 0.080702834 0.0057216655
0.081488304 0.018786434 -0.011387806 0.10936132 0.030526722 0.13815632 -0.070023455 0.0073303357
-0.04266458 -0.105285205 -0.0016134673 -0.08782043 -0.016241582 -0.07312875 -0.069644265 -0.050314207
0.03704689 0.020083582 -0.087191276 0.039156582 0.094007045 0.05967966 0.033387035 -0.015358717
0.057184987 -0.14810771 0.06362521 -0.0017543348 -0.13974841 -0.087869704 0.077578604 -0.09251577
-0.013664138 0.03792742 -0.07399838 -0.012665299 -0.055831306 -0.07530821 -0.04533995 -0.083121866
-0.036834206 0.08972885 -0.059196275 -0.11503301 -0.08582285 -0.08438635 0.043639045 -0.05283206
-0.10670019 -0.099386185 -0.13112567 0.004473626 0.04896278 0.007481998 -0.04945664 -0.10198387
-0.10106032 -0.08532332 -0.043295905 0.005883564 -0.13527554 0.02917657 -0.033507302 -0.0052797617
0.12102832 -0.048699334 0.04139629 -0.13743165 -0.022418292 -0.01118464 0.004712517 -0.07780834
-0.09858781 -0.032843634 -0.026694315 0.047658738 -0.028386315 0.022078758 0.025962813 -0.09960059
0.04402333 -0.023557037 -0.04712356 0.0961588 0.01360617 -0.030330438 0.015686091 0.082662314
-0.009238959 -0.04325321 0.06376499 -0.025109278 -0.09458244 -0.0012013683 -0.055832267 0.06992454
-0.036848716 -0.042882163 -0.0059161475 -0.05817443 -0.107373685 -0.004711469 -0.09843239 -0.1642689
0.05174172 0.027467689 0.013222638 0.06449102 -0.055622388 -0.015650682 0.066558294 -0.118629284
0.07212224 -0.024210975 0.041806743 -0.07254155 0.051317252 0.028802024 0.04146132 0.054078177
0.05423908 -0.103462 0.101582654 0.017651167 -0.059019715 0.094204605 -0.03885028 0.01426165
-0.101055875 -0.027294448 0.07295551 0.025081834 0.0276925 -0.110629044 0.084136315 -0.045161493
0.04545061 -0.0386144 -0.040308394 0.026572077 0.004238478 0.015810296 -0.055013474 0.0093416665
-0.029881543 0.10204603 -0.14088467 0.05364658 0.011771691 -0.16617045 0.03791472 0.010306555
0.04589638 -0.048364624 0.11024509 -0.035738297 -0.083737694 0.0449749 -0.16384755 0.0865588
-0.13301726 0.006665467 -0.10236611 -0.048661523 0.0056901597 0.15749677 -0.0417642 -0.052118562
0.023918554 -0.039334327 -0.031429194 -0.04291305 -0.031846743 0.040440913 0.01990277 -0.0685008
-0.0029890654 0.039840035 -0.13050286 -0.13178846 0.123967096 0.053586423 -0.05323909 0.023974344
0.07378295 0.02970795 0.04824368 -0.1235282 0.05893261 -0.099294595 -0.085881285 0.044786565
-0.12542842 -0.113695875 -0.017989814 0.087415695 -0.030345788 -0.08166413 -0.048813928 0.064431116
0.047921266 -0.021351986 0.017169984 -0.12150939 0.07512003 0.094553396 0.026057722 -0.031198211
0.066813685 -0.0102793295 -0.14549108 -0.046115026 -0.024016837 0.03871268 0.060863737 0.067689985
-0.011007139 -0.074161395 -0.1591243 -0.012221063 -0.024202622 -0.14099737 -0.0029072198 -0.13904175
-0.04327969 -0.012403506 0.017032115 0.013978042 0.08644859 0.052027144 -0.16326068 -0.08036741
-0.05210135 -0.14815518 0.12076467 0.016137868 -0.06508128 0.007243728 -0.10827789 0.0011339418
00000000: b711 1c3d a0d6 56bc ad50 173d 7e44 9ebd
00000010: 1739 153d 9fa8 60bd f560 00bd 9bd4 723d
00000020: f8a2 26bd 21d2 20bb a000 113e 8484 dabb
00000030: e54f 67bd e3cc e3bd 8747 a53d cf7c bb3b
00000040: 57e3 a63d 02e6 993c ec93 3abc d4f8 df3d
00000050: 2d13 fa3c da78 0d3e 7568 8fbd 5033 f03b
00000060: 0ec1 2ebd c59f d7bd fb7a d3ba 33db b3bd
00000070: 110d 85bc 87c4 95bd a7a1 8ebd 4516 4ebd
00000080: 7bbe 173d 5386 a43c 5791 b2bd a762 203d
00000090: c486 c03d a972 743d d8c0 083d 21a3 7bbc
000000a0: ce3a 6a3d 8ca9 17be ef4d 823d b5f1 e5ba
000000b0: 351a 0fbe 08f5 b3bd 88e1 9e3d e878 bdbd
000000c0: 8cdf 5fbc c859 1b3d 768c 97bd 1d82 4fbc
000000d0: 5eaf 64bd 313b 9abd 62b6 39bd cc3b aabd
000000e0: 77df 16bd c2c3 b73d cb77 72bd 6d96 ebbd
000000f0: e4c3 afbd c0d2 acbd dbbe 323d 6e66 58bd
00000100: a185 dabd fc8a cbbd cf45 06be 7f97 923b
00000110: 328d 483d 8c2b f53b 0c93 4abd ebdc d0bd
00000120: b7f8 cebd febd aebd 0c57 31bd e9ca c03b
00000130: ac85 0abe b403 ef3c f43e 09bd da01 adbb
00000140: b2dd f73d f478 47bd 288f 293d e2ba 0cbe
00000150: 91a6 b7bc c83f 37bc 756b 9a3b fb59 9fbd
00000160: 68e8 c9bd 0c87 06bd 09ae dabc cf35 433d
00000170: 6b8a e8bc 83de b43c f7af d43c 65fb cbbd
00000180: cf51 343d b0fa c0bc a204 41bd e8ee c43d
00000190: 6aec 5e3c 8a77 f8bc 1e80 803c dc4a a93d
000001a0: 015f 17bc 472a 31bd 3897 823d f9b1 cdbc
000001b0: 70b4 c1bd 3b77 9dba 60b0 64bd 9934 8f3d
000001c0: aeee 16bd 35a5 2fbd 3edc c1bb 5048 6ebd
000001d0: bce6 dbbd ab62 9abb ec96 c9bd 1b36 28be
000001e0: 20ef 533d eb03 e13c c3a3 583c de13 843d
000001f0: 4dd4 63bd dc35 80bc b74f 883d e9f3 f2bd
00000200: d3b4 933d 1856 c6bc 8c3d 2b3d aa90 94bd
00000210: 0a32 523d 39f2 eb3c 58d3 293d 1481 5d3d
00000220: cc29 5e3d e3e3 d3bd 910a d03d 2e99 903c
00000230: a8be 71bd 58ee c03d 7921 1fbd b2a9 693c
00000240: 62f6 cebd 9b98 dfbc b369 953d 6b78 cd3c
00000250: 62db e23c 7b91 e2bd a94f ac3d 42fb 38bd
00000260: 6b2a 3a3d 222a 1ebd 6a1a 25bd afad d93c
00000270: eee2 8a3b 9884 813c cf55 61bd ca0d 193c
00000280: 23ca f4bc 82fd d03d 1244 10be 84bc 5b3d
00000290: 0dde 403c 9628 2abe 774c 1b3d d3dc 283c
000002a0: d8fd 3b3d fc19 46bd 2ec8 e13d 5262 12bd
000002b0: ab7e abbd 9a37 383d a7c7 27be bd45 b13d
000002c0: ad35 08be fd69 da3b 53a5 d1bd 4e51 47bd
000002d0: 8574 ba3b d546 213e f010 2bbd 467a 55bd
000002e0: d8f0 c33c 081d 21bd e6bb 00bd 98c5 2fbd
000002f0: bb71 02bd 5fa5 253d 220b a33c 264a 8cbd
00000300: 32e4 43bb 4e2f 233d 8ba2 05be 8ef3 06be
00000310: 76e2 fd3d 707d 5b3d 3b11 5abd d865 c43c
00000320: 841b 973d 165e f33c 2a9b 453d 5afc fcbd
00000330: 5263 713d f75a cbbd 87e2 afbd 1e72 373d
00000340: 4f70 00be 62d9 e8bd 605f 93bc 0007 b33d
00000350: bb97 f8bc 863f a7bd 1df1 47bd 76f4 833d
00000360: 1749 443d 5cea aebc 11a8 8c3c ead9 f8bd
00000370: 88d8 993d 36a5 c13d 0177 d53c 6493 ffbc
00000380: 9dd5 883d a26a 28bc 9dfb 14be 1ce3 3cbd
00000390: f5be c4bc 3091 1e3d 414c 793d 0ca1 8a3d
000003a0: 4a57 34bc eee1 97bd 7bf1 22be da3a 48bc
000003b0: 9444 c6bc 9d61 10be 0e87 3ebb f660 0ebe
000003c0: 0b46 31bd 1338 4bbc ef86 8b3c 2804 653c
000003d0: f50b b13d 6a1a 553d cf2d 27be ab97 a4bd
000003e0: 3a68 55bd feb5 17be 7853 f73d 9033 843c
000003f0: 5649 85bd cb5c ed3b ccc0 ddbd c6a0 943a

Recent_Layer3/MatMul f4 [168, 160]
-0.06438125 -0.10644383 0.04373741 -0.1281271 0.0032183372 0.05270855 -0.012945365 -0.046446253
-0.119582176 0.12545177 -0.18458022 -0.0025485707 0.018674714 -0.10633371 -0.056583155 0.17414929
-0.023654742 -0.1316443 -0.023544941 -0.11028316 -0.04602736 -0.059183273 0.004900976 -0.031843573
-0.05333229 -0.13810726 0.22280347 -0.08159337 -0.08081538 -0.0046011517 -0.031466123 0.020445485
-0.11607847 -0.014546027 0.044278193 -0.030108232 -0.045475896 0.023224311 -0.06244322 -0.009980737
-0.15020788 -0.09016273 0.11054427 -0.054011934 -0.13571464 0.099178135 0.02122968 0.0727741
-0.2253833 -0.022578457 -0.122664385 0.10491131 -0.124752544 -0.13208856 -0.093639076 -0.17535487
-0.08436807 0.101750255 0.049846448 -0.02742758 -0.015697919 -0.06868987 -0.06557057 0.1667929
0.10456589 -0.011569557 -0.08476374 -0.034597512 -0.10128334 -0.088243335 -0.064191565 -0.092898645
-0.016861368 0.17209621 0.06977475 -0.009276259 -0.062371578 0.027925273 0.1172264 0.13244367
-0.140186 0.03413991 0.007516152 0.0062395665 0.092912376 -0.036690943 -0.19405082 -0.08407172
-0.05575674 0.18160959 0.13949981 0.0016758788 -0.0948553 0.09361779 -0.08985878 0.0519455
0.008130617 0.010492503 -0.010807346 -0.088037066 -0.12157658 0.04515871 0.0715398 0.045151148
-0.03025037 -0.0057719667 -0.030290058 -0.072409295 -0.011634047 -0.0156094115 -0.015248585 0.01742531
-0.061477784 0.041587878 -0.024775362 0.061449062 -0.025688902 0.03795435 0.025442393 0.029596321
-0.019957451 0.045408707 -0.0979555 -0.119751 -0.061098333 0.06850407 0.09849062 -0.016338663
0.012473095 -0.09396169 -0.053379834 -0.015223763 -0.11800569 -0.036850084 0.08148628 0.022725213
-0.09229514 0.023296911 0.032444492 -0.09016466 -0.13100079 0.13928477 0.09141685 0.04453551
-0.02420415 -0.060021322 -0.04709766 -0.06308345 0.07126711 0.11373467 -0.023556719 -0.04849002
0.07580767 -0.041410297 0.004730591 0.01812127 0.00820649 0.08944725 -0.10215533 -0.08632844
-0.06651439 -0.099071726 -0.0075584226 0.053619098 0.030380512 0.031617425 -0.057252496 -0.1486702
0.09230512 -0.016825477 -0.19649212 -0.053628333 -0.013435027 -0.16909963 -0.09085917 -0.02799883
0.00031559693 -0.17074113 0.004334829 -0.1219629 -0.0221213 0.053552285 -0.10988189 -0.09295759
0.090144575 -0.1227269 0.10702066 0.06149032 0.118793845 -0.14158978 0.0052441773 0.047957134
-0.1099908 0.007459671 -0.06336294 -0.073105685 -0.07023935 -0.06483099 -0.036441322 0.01654314
-0.07500052 -0.09182281 -0.011428549 -0.05632904 0.021236882 0.04841841 -0.0061210864 -0.0617514
-0.2590389 -0.10692931 -0.130963 0.040788546 -0.1376065 0.070831686 -0.05570379 -0.16245766
-0.08447414 -0.0584724 0.112057105 -0.056081768 -0.03744486 -0.16780347 -0.06407281 0.1919556
-0.08016946 -0.12732333 -0.08735561 0.048163977 -0.16117725 -0.020114988 -0.086199746 -0.058244277
-0.043538656 0.13342533 -0.02189089 -0.006959097 0.048283264 0.0072529465 -0.03336617 0.047639325
-0.15759225 -0.128596 -0.07150825 0.031814557 0.070709266 -0.05416134 0.032744568 0.00561424
-0.12736444 0.15216377 0.048408803 0.057947397 -0.15882961 -0.054311126 -0.08170484 -0.09224906
00000000: 51da 83bd 39ff d9bd 0026 333d c033 03be
00000010: bdea 523b ece4 573d cc18 54bc 6d3e 3ebd
00000020: 80e7 f4bd 6e76 003e 9902 3dbe ec05 27bb
00000030: b7fb 983c 7dc5 d9bd bdc3 67bd 3154 323e
00000040: 97c7 c1bc c3cd 06be 52e1 c0bc 23dc e1bd
00000050: 2f87 3cbd 296a 72bd 5e98 a03b 686e 02bd
00000060: f672 5abd fd6b 0dbe 9826 643e 6d1a a7bd
00000070: 8982 a5bd 42c5 96bb 9fe2 00bd 4a7d a73c
00000080: 8dba edbd 7652 6ebc 0d5d 353d 8aa5 f6bc
00000090: ef44 3abd e940 be3c 76c4 7fbd 3f86 23bc
000000a0: 18d0 19be 3da7 b8bd 0965 e23d 9e3b 5dbd
000000b0: c7f8 0abe e81d cb3d dee9 ad3c 960a 953d
000000c0: e1ca 66be 75f6 b8bc 7737 fbbd bedb d63d
000000d0: 437e ffbd 3942 07be d8c5 bfbd 3a90 33be
000000e0: 2bc9 acbd 7062 d03d ca2b 4c3d ceaf e0bc
000000f0: ec98 80bc 46ad 8cbd dd49 86bd c2cb 2a3e
00000100: a426 d63d 3d8e 3dbc 9d98 adbd 1fb6 0dbd
00000110: a46d cfbd ecb8 b4bd de76 83bd a541 bebd
00000120: da20 8abc fd39 303e 10e6 8e3d 73fb 17bc
00000130: 5779 7fbd 8bc3 e43c 6514 f03d 509f 073e
00000140: eb8c 0fbe 4ad6 0b3d 0e4a f63b 4775 cc3b
00000150: d848 be3d 3e49 16bd 42b5 46be cb2d acbd
00000160: 2e61 64bd ddf7 393e 0ad9 0e3e 29a9 db3a
00000170: 7f43 c2bd afba bf3d e107 b8bd cec4 543d
00000180: 4836 053c bfe8 2b3c 4b11 31bc c74c b4bd
00000190: 24fd f8bd 57f8 383d 7583 923d 69f0 383d
000001a0: a0cf f7bc c422 bdbb db22 f8bc 534b 94bd
000001b0: bb9c 3ebc 9ebe 7fbc 33d5 79bc 86bf 8e3c
000001c0: 21d0 7bbd 0d58 2a3d b3f5 cabc 03b2 7b3d
000001d0: 8871 d2bc 0576 1b3d 916c d03c fc73 f23c
000001e0: cf7d a3bc 7bfe 393d e59c c8bd 0340 f5bd
000001f0: 3f42 7abd dd4b 8c3d 73b5 c93d a9d8 85bc
00000200: f45b 4c3c fd6e c0bd d0a4 5abd 176d 79bc
00000210: f8ac f1bd 1df0 16bd 47e2 a63d 3a2a ba3c
00000220: 3c05 bdbd 2ad9 be3c 84e4 043d 40a8 b8bd
00000230: 1225 06be aba0 0e3e c238 bb3d de6a 363d
00000240: c847 c6bc ebd8 75bd 7ae9 40bd e531 81bd
00000250: 7ef4 913d b9ed e83d 05fa c0bc 799d 46bd
00000260: 0d41 9b3d d89d 29bd 1303 9b3b 0f73 943c
00000270: 8474 063c 1f30 b73d d036 d1bd f7cc b0bd
00000280: b238 88bd 1ee6 cabd a5ac f7bb b39f 5b3d
00000290: 8de0 f83c 4681 013d 9881 6abd 003d 18be
000002a0: 770a bd3d 95d5 89bc 3b35 49be 62a9 5bbd
000002b0: 961e 5cbc 7428 2dbe 5f14 babd cd5d e5bc
000002c0: b476 a539 c3d6 2ebe 2e0b 8e3b afc7 f9bd
000002d0: bb37 b5bc a459 5b3d c209 e1bd 8d60 bebd
000002e0: b89d b83d 3e58 fbbd a62d db3d 46dd 7b3d
000002f0: 304a f33d e9fc 10be 59d7 ab3b b36e 443d
00000300: db42 e1bd 4170 f43b 6ec4 81bd 6fb8 95bd
00000310: a6d9 8fbd 1cc6 84bd 7f43 15bd 7b85 873c
00000320: df99 99bd 990d bcbd cf3e 3bbc 48b9 66bd
00000330: f8f8 ad3c 6252 463d 6593 c8bb 09ef 7cbd
00000340: bfa0 84be c1fd dabd 2a1b 06be e411 273d
00000350: b8e8 0cbe 3410 913d a829 64bd 4d5b 26be
00000360: c700 adbd c180 6fbd 327e e53d ffb5 65bd
00000370: c85f 19bd acd4 2bbe 9b38 83bd 0290 443e
00000380: e32f a4bd 0c61 02be 80e7 b2bd 9747 453d
00000390: a60b 25be 30c8 a4bc 7e89 b0bd 8d91 6ebd
000003a0: 9755 32bd a6a0 083e 8654 b3bc 2309 e4bb
000003b0: acc4 453d 20aa ed3b f7aa 08bd 7421 433d
000003c0: dd5f 21be abae 03be eb72 92bd fb4f 023d
000003d0: 05d0 903d 48d8 5dbd 2b1f 063d a9f7 b73b
000003e0: d36b 02be d2d0 1b3e 4f48 463d 405a 6d3d
000003f0: 3ba4 22be 5875 5ebd de54 a7bd 13ed bcbd
